exploration_plot/pretrained/antgoal-0728/policy.pth (torch, 893816 bytes, 10 tensors)

fc0.weight f4 [300, 123]
00000000: 9bf7 f7bd ab57 893e e380 97bf 4437 e5bf
00000010: 9eeb ae40 48f2 07c0 14b5 32c0 1f62 d0bd
00000020: 613f b13d 3dac fbbd 97e3 38bd 9096 cdbe
00000030: 0381 e53e 040a e6be 2d0a d73e 3e7e a8be
00000040: a397 5c3d 7d18 54bd 8f38 323e 31aa e03e
00000050: 3b90 2abe 625a 5abd 125d 8f3c db19 c7bb
00000060: f7dd 003d 80c6 3abd 5a3d ed3c 5a12 20bd
00000070: cc8f 973d 5361 55bd 9a01 4fbd 2dd3 423d
00000080: cb44 29bb da22 09bc 6b97 e33a 3852 5a3d
00000090: 1f85 5fbd 4d5b c03c 84bb 573d ba67 a8bc
000000a0: 6945 c83c 9618 4aba 7a3a 9d3c 1340 a4bc
000000b0: 9ad3 5abc 9d35 2f3d 26b0 a03c 03da 353d
000000c0: 9bff 613c 3917 04bd 5ad7 cd3c b48c 513c
000000d0: bd97 5cbd 20f3 8abc d9da 5d3d 4bf7 c73c
000000e0: 11db 203d 36ee 4b3d d5e9 b23c 29bc 653d
000000f0: 519d c13c d9c1 473c 6f82 083c 4f24 243d
00000100: 0dde 3abd 5fd7 52bd a04c b03b 9fd9 493d
00000110: 6c3f 523d 93fa 85bc 39d3 f43c 67ec 07bd
00000120: b900 e5bb a7fb 3dbd 390f 30bd d15a 54bd
00000130: 0fad 1e3d 3c24 143d 278f 163d 48f5 abbb
00000140: 2865 94bc d09b 393d fd39 c03c 66d8 223d
00000150: a9cd 6dbc 5c72 7ebc 9bea 453d c015 913b
00000160: f9c4 763c 714e 4a3d 231c 233c cb11 bf3c
00000170: d865 e53c b62c 17bc 539d a13b 4377 6c3d
00000180: 2f22 6bbd 7228 bdba 1c11 3cbd 5aa0 1fbd
00000190: 3584 f13c 8502 36bd adbf c9ba 6d86 85bc
000001a0: bd9f 2ebc ccc8 883c 9c2a 0e3d 7fc2 5dbd
000001b0: 9b4e aabb 4495 183c d8c4 03bd 0a42 b7bc
000001c0: 8844 aebc 5ccc 85be 3794 563f 6602 3a3e
000001d0: 2359 873e 90a7 a0be e9e4 a8be 72d6 e53e
000001e0: f9d6 42be d1ce 953d 64e4 0cbe 4d90 9fbe
000001f0: 7804 18bf db25 3f40 adc4 03c0 b0d8 cd3f
00000200: dbc3 0fbf 0df3 8cbf 5435 bcbe ada3 1b3e
00000210: 16e2 29bf bc55 a03e 1dab 913e 0cab 753f
00000220: 4e7f 94bd f5ce 27be dfd6 8ebe 1ab7 65be
00000230: 8b37 7a3f 8115 abbe ad6e 82bd f7a0 22bf
00000240: 0a29 7dbd 1690 29bc 267b eebd a2b1 593c
00000250: 376c a0bd b603 453d 7fd0 aebd fd4c d9bc
00000260: 7a05 b6ba 8f5b 503d ad6c 99bc b04a f7bb
00000270: 0f50 60bd 2ab6 3d3d 4360 693d 9403 5ebd
00000280: 16e3 57bb 4f2f d3ba 68dc b7bc 007b 62bd
00000290: 4a50 40bd f8bb 61bc f608 523d 933b 043c
000002a0: 334b 5ebd 1372 303d 920c 55bd d6f6 69bc
000002b0: 8873 8bbb 97f9 3fbd 8f3e e93c 0910 4c3c
000002c0: 1839 933c ca7c 03bc 462a 6b3d ff4a 43bd
000002d0: 60a0 3b3d f58e 073d 9329 fcbc 515e 2f3d
000002e0: 2d1a 1abd edfb 573d e578 c8bb f0a7 903a
000002f0: 5363 2f3d c70e 5cbd d54d 4abd 936f 62bd
00000300: 7f20 d0bc 7bf8 2bbd de18 3c3d 53b2 f6bb
00000310: 052f 67bc 6a48 113d 3714 c5bb 55b0 69bd
00000320: 3132 68bc 3ada 1abc 85e2 233d 0848 43bd
00000330: 708a 2dbc 97cb 863b 6b31 883c 39c3 debc
00000340: 6f75 013d 93c4 103c f9df 3a3d ed86 3ebd
00000350: 8c6e 52bd deb5 e93c 212b 22bd 3edc 083d
00000360: 8fcb 253a 5e73 eb3a b09e 03bd 775f e63b
00000370: 8c7d 513d 5706 1ebd 306b 95bb 1114 193d
00000380: 56e4 c93c 90d2 19bd d9d5 a0bc 20c9 bcbc
00000390: 276e ab3c f4de c4bc 6ded e93b eab1 66bd
000003a0: 9ecb 963c 764d ce3a 7230 893c 8ede fe3c
000003b0: daf0 9b3e 5809 ff3f 3237 bfbe 2848 80be
000003c0: 2044 96bf 8fc1 733f c143 573f 89c7 9abe
000003d0: bf0d 4a3e 533a 2abf 319e 1f3e 911d 153d
000003e0: 19c2 85bf 66eb 2abf 8178 3240 bdae 3cc0
000003f0: 0e00 47c0 ceb6 9bbc c679 d83e 2238 ba3e
-0.12107774 0.26824698 -1.1836208 -1.7907491 5.466262 -2.1241627 -2.7923021 -0.10174965
0.08654667 -0.12288711 -0.04513892 -0.40153933 0.4482499 -0.44929516 0.4199995 -0.32908815
0.05385555 -0.051781166 0.17404388 0.43879846 -0.16656582 -0.053308852 0.017500434 -0.0060760803
0.031461682 -0.04559946 0.028959919 -0.03908 0.07400474 -0.05209477 -0.050538637 0.047564674
-0.0025828357 -0.008370126 0.0017363852 0.053301066 -0.054570314 0.023481036 0.052669063 -0.020557273
0.02444716 -0.0007709352 0.019192923 -0.020050084 -0.013356114 0.04277574 0.019615244 0.044397365
0.013793851 -0.03224871 0.025127102 0.012789894 -0.053855646 -0.016961634 0.054163788 0.02440991
0.039271418 0.049787723 0.021840015 0.056087647 0.023634585 0.012192213 0.008331879 0.04007369
-0.04562192 -0.051474925 0.005380228 0.049279805 0.051330015 -0.016354835 0.029885875 -0.033184435
-0.0069886115 -0.046382573 -0.042983267 -0.05184442 0.03873926 0.03616737 0.036757614 -0.0052477457
-0.018114641 0.04531461 0.023465151 0.039757155 -0.014514365 -0.015530195 0.04831944 0.0044276416
0.01506161 0.049391214 0.009955439 0.023323914 0.028002664 -0.0092269685 0.0049320846 0.057730924
-0.057405647 -0.0014431609 -0.045914754 -0.038971283 0.029481987 -0.044435997 -0.0015392207 -0.01629945
-0.010658202 0.01669731 0.034708604 -0.054140564 -0.005197359 0.009312931 -0.032170147 -0.022370357
-0.021272913 -0.26132476 0.8381991 0.18164977 0.26435193 -0.3137784 -0.32987145 0.4489017
-0.19027318 0.07314838 -0.13758999 -0.3116478 -0.5938182 2.9866855 -2.0588791 1.6081753
-0.56158227 -1.1011673 -0.36759436 0.15199156 -0.66360605 0.3131541 0.28450862 0.9596412
-0.07250844 -0.16387542 -0.2789831 -0.22433129 0.97741 -0.33414844 -0.06368766 -0.6352686
-0.061806716 -0.010349294 -0.116445825 0.01328698 -0.0783314 0.048099242 -0.08535861 -0.026525969
-0.001388713 0.050868567 -0.018728578 -0.0075467452 -0.05476385 0.046316303 0.056976568 -0.05420263
-0.003294175 -0.0016112122 -0.022443965 -0.055293083 -0.04695157 -0.013777725 0.051278077 0.008070844
-0.054270934 0.04307754 -0.05201394 -0.014280042 -0.0042557158 -0.046868887 0.028472213 0.012454995
0.01797156 -0.0080253575 0.057413362 -0.047678944 0.045807242 0.03309532 -0.030781543 0.042814557
-0.03762262 0.05273049 -0.0061179274 0.0011036377 0.042819332 -0.05372503 -0.049390633 -0.055282187
-0.02540612 -0.041985016 0.045922153 -0.007528582 -0.014110331 0.03546945 -0.0060143727 -0.05705293
-0.014172123 -0.009451443 0.040010948 -0.047676116 -0.010592088 0.0041136253 0.016625127 -0.027192699
0.031606134 0.008835929 0.045623753 -0.046515394 -0.051374957 0.028529104 -0.039591912 0.033413164
0.0006324583 0.0017963459 -0.032133758 0.0070304233 0.05114512 -0.038580265 -0.004559897 0.037372652
0.024645012 -0.037554324 -0.01963322 -0.023045123 0.020926548 -0.024032094 0.007138899 -0.056322016
0.01840764 0.0015739638 0.016746733 0.031111982 0.30457193 1.9924726 -0.37346798 -0.2505505
-1.173954 0.9521722 0.8408776 -0.30230358 0.19731806 -0.66495246 0.15587689 0.03640515
-1.0449859 -0.6676544 2.788605 -2.9481652 -3.1093783 -0.019008067 0.42280406 0.3637095

fc0.bias f4 [300]
00000000: d03e 84bf 1e8a 6ac0 4b46 17bf 8c0b b2bf
00000010: 5c0a 1fc0 8496 18c0 2114 90be 1f6d 9b3e
00000020: 11ce c9bf 4e19 44bf 4641 d0bd ca4b 10c0
00000030: f0c5 f63e 3e00 efbf bfb7 983e bcd5 e2bf
00000040: fe59 e83d 24b5 babf 6063 17c0 8f83 39bf
00000050: 05eb c73e cb04 aabf 2171 3ebf 0512 46bf
00000060: e4bd acbf ebff babe bf3a 75bf ddda 3cbf
00000070: 0d8a e8bf 16b4 29c0 ccfa 07c0 59dc 7cbe
00000080: 3f09 32be 6d93 e9be d3f5 3cbf a22e 5cbc
00000090: c975 55be 8733 52c0 13ff 3bc0 19f7 c9bf
000000a0: a57b 93bf c4cd 4ac0 1fc9 25c0 ed0b 2c3e
000000b0: 7127 0ebe 7794 26c0 aabc 9e3f 2af2 f2be
000000c0: e22a a2bf 7d3b 45be 677e 80bf 999c 72c0
000000d0: a1c1 f6bf f44c dcbe e789 72bf d635 2ac0
000000e0: d2e4 c4bf 8e52 5ac0 40bc 64c0 415c 38c0
000000f0: 333a 24c0 242c 273e 7f30 99bf a7d2 4ebe
00000100: 6b78 bbbf 2d32 b3bf 97e4 223f c6cd bf3e
00000110: 027f 563f dd5a bdbf 0e0f fabe 88e4 04c0
00000120: d625 eabe 3981 f7bf 8496 00c0 de5e 4f3f
00000130: d8a5 c2bf 6c94 ddbf 03f7 a3bf 49ca 84bf
00000140: a1d0 083e fc4e 3dc0 4f1c f23e 5aaf fabe
00000150: 10cb 89bf 25b4 22c0 67d2 bdbf ec01 91bf
00000160: e1f6 82bf 1a39 23c0 c04f 193f dd9d 43bf
00000170: 4da9 163f 270d 2dbf 04fe 443f 13d2 36bf
00000180: 3a75 84bf 48f6 f0bf 3c52 a4bf b47d 67c0
00000190: 493b a1be 111d f33e 7c0c 6bbf 44f0 013f
000001a0: b9d3 41c0 2845 3cbf aa15 6cbf 2ffe 36c0
000001b0: 6d64 f9be bfa6 82bf fe67 1c3f 3fb0 06c0
000001c0: 391a 9abe bbc5 e6be bc48 42c0 60e7 f6bf
000001d0: 73de bcbd 70c5 0a3f 9b43 63bf c729 85bf
000001e0: 4b3f 14bf 2651 43c0 8e6e 1a3f 4163 96bf
000001f0: 0292 0fc0 4bfb e2bf 07e3 fe3f 336e 9ebe
00000200: 7aa4 8dbc 718b 8dbf 3b14 7fc0 27ad afbf
00000210: 6ffa 32c0 a093 123f d394 2abf bafc c7bf
00000220: 6ae1 c3bd e3c0 a3bf 57c7 c1bf 26be d7bf
00000230: 4e4f 8a3d 495c 50bf 1333 25bf 0b61 96bf
00000240: d708 06c0 9c23 593c 999d 003f 835e 4ebf
00000250: 031d 07c0 6a04 d5be 39f2 60c0 5826 48bf
00000260: 2c59 a3bf 989a 00c0 dcdb 54c0 5c5a 03bf
00000270: fb30 9cbf 85b1 53c0 663a 29c0 02f5 f9bf
00000280: 171c 6cc0 9263 b1be 4a30 aebf 1361 12c0
00000290: 6265 c8bf 4810 c23f 3f5c 33bf 5470 84be
000002a0: 4137 2ec0 a7bb 06bf b773 1c3e 974b 81bf
000002b0: 7026 51bf 899f 2bbf f88f b43e d56d c1bc
000002c0: c6a2 a2bf 10e3 b73e 792a 4f3f 23d3 d53f
000002d0: fdab 863f de0f 34c0 c35d 59c0 5e50 723f
000002e0: d7e8 fcbd de0f 97c0 61f0 a0bf 0169 08bf
000002f0: 1e8a 873f 0a77 95be efc0 c9bf f720 8bbf
00000300: ee80 0ebe a848 14c0 c329 30c0 cb2d 11bf
00000310: a79f 123f cad8 ddbf 6012 5bbf 0e02 ed3f
00000320: 2eda abbf 6af8 97bf a48c 193f f57c b5bf
00000330: b6e5 6bc0 51dd 6b3f 0d8b 30c0 a499 04bf
00000340: 202b 5b3f 886f 37c0 1130 0fc0 e909 afbf
00000350: 4cf5 f4be 2277 9fbf 0569 45c0 a329 33bf
00000360: b384 c4bf ced0 32c0 0495 20bf 32ec 52c0
00000370: 8cad 1bc0 376d 8abf bc4c cebe 72ff 1fbf
00000380: 7cb2 95bf f634 19c0 1d87 74bf 9d9d 0940
00000390: f27e b1bf 2ec3 b7bf b45a b8bf edde d83c
000003a0: 4977 2ebf 5fb8 0bc0 cf7e c6bf 1ee7 6d3f
000003b0: 021d 1fc0 417a a0bf fc55 cb3f e2a4 f23c
000003c0: 0907 79bf 8a4f 20c0 3327 183f 6fdd ec3e
000003d0: 7020 32bf 685d 083f 7d47 4ec0 4c26 3e3f
000003e0: 0cbf d3bf 5658 b6bf 884c 90bf 23ca f13e
000003f0: f7f7 323f 0962 2bc0 f5d3 a3be cf26 b1bf
-1.0331669 -3.66468 -0.59091634 -1.3909774 -2.4850073 -2.3841867 -0.28140357 0.3035669
-1.5766011 -0.7660111 -0.101687 -2.2546258 0.4819789 -1.8671949 0.29827687 -1.7721477
0.1134529 -1.458653 -2.3654404 -0.7246637 0.39046493 -1.3282713 -0.7439137 -0.77371246
-1.349545 -0.36523375 -0.95792764 -0.7377146 -1.816713 -2.6516166 -2.1246824 -0.24693431
-0.1738634 -0.4562029 -0.738126 -0.0134388525 -0.20845713 -3.284395 -2.9374435 -1.5778533
-1.1522108 -3.168809 -2.5904005 0.16801424 -0.13882233 -2.6028116 1.2401326 -0.47450382
-1.2669337 -0.19260974 -1.0038575 -3.790808 -1.9277841 -0.4302746 -0.9474167 -2.659536
-1.538233 -3.4112887 -3.5739899 -2.8806307 -2.5660522 0.16325432 -1.1967925 -0.20197545
-1.4646124 -1.3999687 0.6363005 0.3746168 0.8378755 -1.4793354 -0.4883961 -2.0764484
-0.45731992 -1.9336311 -2.0091867 0.8100413 -1.5206861 -1.731092 -1.2809757 -1.0374233
0.13360836 -2.9579458 0.47287223 -0.48961908 -1.0765095 -2.5422451 -1.4829835 -1.1328712
-1.0231591 -2.5503602 0.59887314 -0.76412755 0.5885208 -0.67598194 0.769501 -0.714143
-1.0348275 -1.8825159 -1.2837596 -3.6170473 -0.31490543 0.47483113 -0.91815925 0.5075724
-3.0285475 -0.73543024 -0.92220557 -2.8592641 -0.4870943 -1.0207137 0.6109618 -2.1045072
-0.3009813 -0.4507273 -3.0356894 -1.928936 -0.09222116 0.54207516 -0.8877503 -1.0403374
-0.5790908 -3.051828 0.60324943 -1.174904 -2.2432866 -1.7732939 1.9913033 -0.3094345
-0.017290343 -1.1058179 -3.9856098 -1.3724717 -2.7965353 0.5725651 -0.6663334 -1.5624001
-0.09564479 -1.2793239 -1.5138959 -1.6854904 0.067534074 -0.81390816 -0.6453106 -1.1748365
-2.0942895 0.013253119 0.50240475 -0.80612963 -2.1111457 -0.4160493 -3.514784 -0.7818351
-1.2761588 -2.0094357 -3.3259192 -0.5130975 -1.2202448 -3.30771 -2.6441894 -1.9527895
-3.6892145 -0.3464628 -1.3608487 -2.287175 -1.565594 1.5161219 -0.7006263 -0.2586695
-2.7221224 -0.52630085 0.15278517 -1.0101193 -0.81699276 -0.67040306 0.3526609 -0.023611942
-1.2705925 0.35915422 0.80924183 1.6705059 1.0521237 -2.8134685 -3.3963478 0.9465388
-0.12349098 -4.720687 -1.2573358 -0.53285223 1.0589025 -0.29192382 -1.5762004 -1.0869435
-0.1391637 -2.3169346 -2.752549 -0.567105 0.5727486 -1.7331784 -0.85574913 1.8516252
-1.3425958 -1.1872685 0.59980226 -1.4178759 -3.6858954 0.9213458 -2.758487 -0.51796937
0.8561268 -2.8661823 -2.2373087 -1.3674899 -0.47843397 -1.2458231 -3.084535 -0.6998541
-1.5352997 -2.7939944 -0.6272738 -3.2956662 -2.4324675 -1.081458 -0.4029292 -0.62499154
-1.1695094 -2.3938575 -0.95518667 2.150245 -1.3866866 -1.4356439 -1.440268 0.026473487
-0.68150765 -2.183128 -1.5507449 0.9293078 -2.4861455 -1.2537309 1.5885615 0.029619638
-0.9727636 -2.5048547 0.59434813 0.4626269 -0.69580746 0.53267527 -3.2231133 0.74277186
-1.6542678 -1.4245708 -1.1273355 0.4722453 0.69909614 -2.6778586 -0.31997648 -1.3839968

fc1.weight f4 [300, 300]
00000000: a551 b1bc 91f7 0d3d a6ea e0bc d97a edbc
00000010: 93ac a3bd 7a79 e83c f6f5 c73c 15dd b0bd
00000020: bcc8 9f3b 8945 773c 6b57 86bd 3397 40bd
00000030: 52e4 1cba dc03 58bc 6eb7 b6bc 7aa3 cb3c
00000040: 6b7d 72bd ce01 68bd 5829 2fbd eabc 343c
00000050: a706 5cbd 6d51 11bc 9c9a bb3b fffe 83bd
00000060: 925a 6b3c db62 90bc a925 4bbd 358d d23c
00000070: 937b 53bc 14f1 3cbd 8494 b9ba 6004 8c3c
00000080: 6306 2b3d 4ec0 a6bd 6a24 1d3d 94c5 15bd
00000090: af3f 03bc 5a55 bebb e6ee 793c 1118 273b
000000a0: ecbd a1bd a4b9 7bbc 5039 bb3c bf9c 64bd
000000b0: 1d8c 5abc a159 b2bd 873d 15bb 43c4 33bd
000000c0: 96d9 a6bd e0aa d53c 5d77 0bbd 744d 70bc
000000d0: b840 373c b7a6 f4bd 1ba2 a9bd 1fc0 27bd
000000e0: f707 2dbd 8375 0bbd 15d6 bfbc 0dd8 04bc
000000f0: 1916 75bd b45d 9f3c 7157 b4bc a9ca df3c
00000100: 4c9b 3abc 4607 59bc f3ae 57bd 49c6 59bc
00000110: 38e2 243b fb2e acbd 2897 c33c 95f6 ceba
00000120: 1a8c 9abd b72b b83c 5fdf 88bd 2842 1c3d
00000130: d06c 88bc fd5a c5bb c45b aebd a439 10bd
00000140: e44e 36bd d843 3bbd 8304 26bd 5460 7b3c
00000150: 2558 5abc ff33 38bd b427 5dbd 39ab 3cbb
00000160: 60ab 243d 8cba 90bc 48ba d53b 79dd 5d3b
00000170: cc82 bdbd b20b 8fbd aa93 aabc b8c6 02bd
00000180: db97 6a3c f585 80bd 5785 06bd 4b49 a5ba
00000190: 4ad5 a93c 8c5f 5fbd ba6c babc db0e 57bd
000001a0: 3ce2 84bd 6ac6 023d 86a4 a3bd adef 4dbd
000001b0: 4d12 f0bb dc4c a1bb e4f4 8ebd a8c2 693c
000001c0: c04a 4dbd 7ce3 83bc 7e50 773c 1a9a 8bbc
000001d0: 5a1f cebd 13b1 1fbd 8cac 76bd 4659 62bd
000001e0: 2529 933b 039e e7bc 0c77 9bbd f585 bf3c
000001f0: b688 b5bc a521 80bc 83a8 58bc b1f6 7ebd
00000200: efd6 07bb c10e d03c 08ef 343c fd5f 3bbd
00000210: 1b17 72bd 1dbb 30bd 03ad 85bd a6e4 113c
00000220: 6521 7c3c fdab adbc 5c0a 1cbc b8ac 5cbd
00000230: dfab 27bd 3307 5fbd 168f f23a 1d0a 263d
00000240: 99a1 ad3b e6e1 bebd 4a9c 5cbd d626 c0bd
00000250: f840 d7bb 3e5a 5cbd a35c 2d3c 069a 1e3d
00000260: dcf0 26bd e15e 743b fe59 43bd 2eac 1bbc
00000270: b2e3 05bc ae60 473d 0c85 86bd ab36 93bd
00000280: a48d acbd 2197 7cbd b454 3e3b 2ecb 36bd
00000290: 4a4f e2bd c74c 18bd 0e26 8dbd 7891 2cbd
000002a0: c512 d0bc 2281 b1bc 4d69 2bbd cb1f 623c
000002b0: 6404 fcbc dd74 7c3c cd33 b2bd 0bd8 913b
000002c0: ef78 50bc ff45 46bd d1c5 103c c78d 12bd
000002d0: 7e28 9ebd 94d6 94bd 787f 563d 9530 7fbd
000002e0: 05d6 9bbd 0af5 0f3d 061a c5bc 73c6 50bd
000002f0: b490 5ebc 5c05 4e3c 9453 a4bd 8e3e 6c3b
00000300: 15ce f83b 9505 a1bd f863 a8bd c9ff 9fbd
00000310: c9c8 e4bc b175 7cbd b46d c83c 3084 9a3c
00000320: 7b79 3dbd 3c4d 05bd 1cec 81bd 6417 32bd
00000330: e270 c7ba 3a68 cfbd 6bc8 a1bd 285a 9cbc
00000340: ab14 8abd fc8d 6bbc 0414 6b3c 4cf4 8cbd
00000350: 8c70 d73c 5a54 9bbd bf5f 10bd 205b bbbc
00000360: 41ee 41bd ae7c 9cbc 3139 013c b714 c63b
00000370: afdd ec3b 19d6 57bc 61f1 053d df89 96bd
00000380: 9c52 57bc eaf6 d9bc 441b 71bd b6a7 38bd
00000390: 144c d8bc 3b4a a2bb 9111 8ebd 7ba3 cdbd
000003a0: a0c8 51bc 0905 45bc a370 10bb d1a4 9ebd
000003b0: 3354 a93a c359 533c dd9c 8abd ec28 20bd
000003c0: dd45 afba a326 cbbc 04e3 16bd 895d 8fbd
000003d0: 3031 7cbd b6c5 8c3c 2d5a 15bd 44aa 46bb
000003e0: 847e dbbc 5e16 83bb c15f 5d3c 6e27 1cbd
000003f0: e3ed b2bd 82fd 1b3d c56e 183d 411e 8f3c
-0.021645376 0.034659926 -0.02745564 -0.028989242 -0.079919 0.028378237 0.024409276 -0.08635918
0.0048762243 0.015092262 -0.065596424 -0.047019195 -0.000598495 -0.013184514 -0.022304263 0.024858225
-0.05920164 -0.056642346 -0.042764038 0.011031369 -0.05371728 -0.008869511 0.005725218 -0.06445121
0.014364855 -0.017625263 -0.049596462 0.025702098 -0.01290788 -0.046128348 -0.0014158641 0.01709193
0.041754138 -0.08142148 0.038364805 -0.03656538 -0.008010789 -0.0058085145 0.015254712 0.0025496522
-0.07897553 -0.015364084 0.022854477 -0.055813547 -0.01333907 -0.087085016 -0.002277227 -0.04388834
-0.0814697 0.026082456 -0.03404938 -0.014666904 0.011184864 -0.11945861 -0.08282872 -0.040954705
-0.042243924 -0.034047615 -0.023417512 -0.008108151 -0.059835527 0.01945386 -0.022014352 0.027318316
-0.011389565 -0.013246363 -0.05265708 -0.013291904 0.002515925 -0.08407398 0.023875788 -0.001579004
-0.075462535 0.022481782 -0.0668323 0.03814903 -0.016653448 -0.0060228095 -0.08513597 -0.03521122
-0.04450883 -0.045718998 -0.040531646 0.015342791 -0.013326679 -0.044971462 -0.053992942 -0.002878858
0.0402025 -0.017667077 0.0065224506 0.0033853932 -0.09253463 -0.069846526 -0.020822365 -0.031927794
0.014318432 -0.0627555 -0.032842007 -0.0012610344 0.020731587 -0.05453448 -0.022756923 -0.0525044
-0.06488463 0.031927504 -0.07990365 -0.0502774 -0.0073264004 -0.0049224924 -0.06980303 0.014267601
-0.050120115 -0.016099684 0.015094874 -0.017041255 -0.100645736 -0.03898723 -0.060223147 -0.05526092
0.004490989 -0.028273588 -0.07591066 0.023379305 -0.022159915 -0.015641043 -0.01322377 -0.062246982
-0.0020727476 0.02539766 0.011043318 -0.04574584 -0.059104066 -0.043147195 -0.0652714 0.008904612
0.015388821 -0.021200174 -0.009523954 -0.053875655 -0.040935393 -0.054450225 0.0018505778 0.04053699
0.005298805 -0.093204305 -0.053859986 -0.09382407 -0.006569024 -0.053797 0.010581168 0.038721107
-0.040757045 0.0037287998 -0.047693245 -0.0095015 -0.008171963 0.048676185 -0.065683454 -0.071881615
-0.08425453 -0.061667565 0.0029042186 -0.04462736 -0.110502794 -0.037182596 -0.06892024 -0.042130917
-0.025399575 -0.02166802 -0.04184847 0.013801525 -0.030763812 0.015408722 -0.087012865 0.004450803
-0.012724145 -0.048406597 0.008836226 -0.03577974 -0.07722567 -0.0726749 0.052367657 -0.06230219
-0.0760918 0.035145797 -0.02406026 -0.050970506 -0.013584305 0.01257452 -0.08023754 0.0036048028
0.0075929263 -0.07862393 -0.082221925 -0.07812459 -0.027927773 -0.061635677 0.024466373 0.01886186
-0.04625843 -0.03254436 -0.063438624 -0.04347934 -0.0015216137 -0.101273015 -0.07899555 -0.019085959
-0.06742223 -0.014377113 0.014348034 -0.068825334 0.026298784 -0.07584448 -0.03524756 -0.0228706
-0.047346357 -0.01910242 0.007887171 0.00604495 0.007228575 -0.013173603 0.0327009 -0.073505156
-0.013142254 -0.026606996 -0.058863893 -0.045081817 -0.026403464 -0.0049526966 -0.06936944 -0.10040947
-0.01280418 -0.012025126 -0.0022039793 -0.0774628 0.001291877 0.012899819 -0.067682005 -0.039101526
-0.0013372261 -0.024798697 -0.036837593 -0.07000262 -0.061570346 0.01718412 -0.03646295 -0.0030313889
-0.026793726 -0.004000469 0.013511599 -0.03812354 -0.087367795 0.03808356 0.037215013 0.01747048

fc1.bias f4 [300]
00000000: 7227 b63c 7794 413d 223d 7b3d 0130 813d
00000010: f84a 1ec0 dfff 9cbf efac 95c0 d32e 173d
00000020: d5c3 ef3e efec a1bf 2549 973e 5b02 9d3d
00000030: 4e0e 2b3d b764 66be 990a 5a3d da1e f63c
00000040: 05e7 413e 3945 273d e753 0640 b3ea 0dbf
00000050: 9303 143f 344c afbf aa90 523d 50f9 593d
00000060: be76 413d d87c 4e3d 6fe0 0e3d 1738 c1be
00000070: 3168 843d 9d63 f8be 4754 4d3f 6d26 7ebf
00000080: e0a0 f33c 2d5e ebbf a847 863d ec20 123d
00000090: 3d72 c3bf 7a67 223d d375 8a3d 70b6 553d
000000a0: 7d32 3f3d efa0 aabf 2a50 9abf 2baf 773d
000000b0: 3401 7f3f f668 2c3f fddd 393d 1f1d 353f
000000c0: 7539 87bf 680f 693d 8f24 b33f 7c5d 9c3e
000000d0: c571 09c0 d89c 4e3d 382a 753f c4d8 8f3f
000000e0: e2ff 3b3e 1837 163d 22a4 543d 6724 01be
000000f0: c85d 3d3f 4562 443d be74 813e bf40 273f
00000100: 3567 7c3d b3d2 553d 85ea 313d 6ce6 1ec0
00000110: 36fb 823d 6d29 813d 3c3e 1e3f 0e70 ad3e
00000120: d2bf c4bf 1215 623d d0d1 803f 71ed 62be
00000130: 7edb 493d 2b05 393d a555 743d c19a e5be
00000140: 31de 033d 5c63 163d b1b0 3f3d ba3c 3e3d
00000150: 81e8 1f3d 804e 65c0 4b5e 33bf e7c9 3d3d
00000160: 0fe8 583d ee9e 0abe 80de 6d3d 1106 a53c
00000170: 2da2 453f 350b 8c3d b11e 523d e03c bcbf
00000180: 2719 06c0 731e b03f e215 ca3c a5cd 93bf
00000190: 770e 563d 8334 e4be 8185 b63f c9bf 6dbf
000001a0: 32ea 0540 266d 8e3e 08b9 4d3d 93f7 2bbe
000001b0: bc82 71bf b7d7 863d 59b7 813d f35b 403d
000001c0: 20ee af3f 414c b6bc 1a34 7d3d 62bb 353d
000001d0: 4f45 a9bf 40a9 2d3f d23e 723d 8c65 27c0
000001e0: aee5 a13f 585d 323d c0d2 71bf ecb9 2c3f
000001f0: 55b6 06c0 9a7e 003d 16cf 663d f204 e43d
00000200: 143b 603d f8a2 643d e49a 01bf 3c7b 08c0
00000210: 70bf 09c0 913b 573d 577f 1d3d ca31 493d
00000220: fb2f 483d 0afa 793d 6e76 8cbf 2c10 623d
00000230: bdb0 163d 7a9d 313d 69b8 5f3d 288c 863d
00000240: 3c2e 433d fe80 433d 89f7 3d3d 51c9 523d
00000250: aa2b 573f 238a f73c 0c9e 68bf e828 a43f
00000260: 543e 713d 7ca7 29c0 f001 d33e b591 213d
00000270: 8f69 9fbe c660 8c3f 65c6 313d 1ff2 8e3d
00000280: 8c8c 61be 4076 03c0 2fbf 883f 32af 1a3f
00000290: eaa2 443d d701 4a3d b8af 0f3d bfde 823d
000002a0: 2d27 56c0 e39b 42bf 1ddb eebe c77a 363d
000002b0: 2d3d 34be c7a5 60be 4438 743d af93 073d
000002c0: 93d4 24c0 2589 1abf 56d1 01c0 4556 653f
000002d0: 9608 15c0 9442 82bf d77c 1abe d20e 973d
000002e0: 9512 493f 8c66 6c3d 0617 5ec0 9fd6 1c3d
000002f0: 28bd 113f 292f 453d a4d6 863d 1ff8 cabf
00000300: a254 8b3d d523 fc3f fa2a bebe 1982 013d
00000310: 96d6 4bc0 cbe3 4d3d 6035 323d 7759 2340
00000320: bba8 acbd 648d 44bf 12db 74bf ac80 86bf
00000330: 6a3c 913d e494 fb3e 901e 36bf a295 fc3f
00000340: 37af 333d 5753 1e3d a435 763d 0c8b 613d
00000350: 76cd 1c3d b85b 833e 32da 9f3e dad4 463d
00000360: ab1e a9bf 2fd6 8ebf 07e9 393d c9f1 253d
00000370: 8c21 09c0 c52a 533d fb4d 523d 0f55 5d3f
00000380: 3ad2 613d cfc5 543d 1636 e3bf 661d aa3e
00000390: 8c75 303d c823 4b3d b6c4 163f f80c 543d
000003a0: abb2 133e fc77 093d 7cb9 3ac0 591c dfbe
000003b0: b6b0 3e3d 1d94 393d 8576 333d 4c07 e23f
000003c0: ebff f6bf 46dc 24bf 1242 1cbf d074 32bd
000003d0: 21c7 763d e90c 913d f8f3 243d 4bee 903d
000003e0: 0628 54bf b27f 84bf 1f2d 66c0 bd53 2a3f
000003f0: 0f7c 2d3d e826 743d 919d c1bf 8681 1c3d
0.022235606 0.047260728 0.061337598 0.06307984 -2.4733257 -1.2265586 -4.67736 0.03690989
0.46829095 -1.2650431 0.29547992 0.07666465 0.04176169 -0.22499357 0.053232763 0.030044008
0.18935783 0.0408375 2.098871 -0.5543625 0.57817954 -1.369513 0.051407494 0.05321628
0.047232382 0.05041203 0.034882005 -0.37738106 0.064651854 -0.485135 0.8020672 -0.99277383
0.029739797 -1.8388115 0.06556636 0.035675928 -1.5269238 0.039649464 0.067607544 0.05217594
0.04667901 -1.3330363 -1.2055714 0.060469788 0.9961121 0.6734766 0.04537772 0.7074756
-1.056441 0.05689946 1.3995532 0.30540073 -2.147569 0.050442547 0.95767546 1.1238027
0.1835933 0.036673635 0.05191434 -0.12611543 0.73971224 0.04794528 0.2528438 0.6533317
0.061621863 0.05220289 0.043436546 -2.4828138 0.06395571 0.063067295 0.6181371 0.33874553
-1.5371039 0.055195875 1.006403 -0.22160889 0.04928159 0.045170944 0.05965199 -0.4484463
0.03219432 0.03671585 0.046799365 0.046444632 0.039040092 -3.5829163 -0.70065755 0.046335127
0.052955683 -0.1353719 0.05807352 0.020144494 0.77200586 0.06838075 0.0512988 -1.4706078
-2.0952852 1.3759292 0.024668638 -1.1547133 0.05225989 -0.44571313 1.4259492 -0.92870766
2.0924191 0.2781765 0.050225288 -0.16793661 -0.9434011 0.06584113 0.06333799 0.04696269
1.3744545 -0.022253158 0.061817266 0.044368155 -1.3224276 0.6783638 0.05914194 -2.615573
1.2648218 0.04354605 -0.94462204 0.67471194 -2.1048787 0.031370737 0.056349836 0.11133756
0.05474384 0.05581948 -0.5062697 -2.1325216 -2.1523094 0.05254704 0.03845152 0.04911975
0.048873883 0.06102947 -1.0973642 0.055191204 0.036789645 0.043363072 0.054619227 0.065697014
0.047651514 0.04773044 0.046378646 0.05146152 0.84051 0.030217236 -0.9086616 1.2824984
0.05889733 -2.6508474 0.41212416 0.039445598 -0.31135222 1.0967033 0.043402094 0.06979775
-0.2202627 -2.0540924 1.0683345 0.60423577 0.04800693 0.04931816 0.035079688 0.06390142
-3.346141 -0.76019114 -0.46651545 0.044550683 -0.17601462 -0.21938239 0.05962397 0.033099826
-2.5754745 -0.60365516 -2.0284019 0.8958476 -2.328649 -1.0176568 -0.15086685 0.073758736
0.7854398 0.057714984 -3.4701552 0.038290616 0.56929255 0.04814068 0.06583908 -1.585697
0.06803252 1.9698435 -0.37142164 0.03161821 -3.1849723 0.05026607 0.043507934 2.5523355
-0.0843062 -0.76778245 -0.95646775 -1.0508018 0.07091601 0.49137032 -0.71140385 1.9733164
0.04386827 0.038653698 0.06010975 0.055064246 0.03828188 0.25655913 0.31221157 0.048542835
-1.3212484 -1.1159114 0.045388248 0.040513787 -2.1426725 0.05155446 0.0513439 0.86457914
0.05513213 0.051946457 -1.7750881 0.33225554 0.04308085 0.04959467 0.5889391 0.05177018
0.14423625 0.03356169 -2.917571 -0.43576315 0.046555243 0.045307267 0.0438142 1.7658477
-1.929685 -0.6439861 -0.61038315 -0.043568432 0.060248498 0.070825405 0.04027173 0.07076701
-0.8287357 -1.035147 -3.596504 0.66534024 0.04235464 0.059607416 -1.512621 0.03820946

fc2.weight f4 [300, 300]
00000000: af77 1c3d 5e83 20bd 5b20 b53c 343f 48bc
00000010: ca7e 6c3e becb 023e e5b5 b93e 7e13 503d
00000020: a10b 8bbc 883f 54c0 62c2 b63e 9a77 1fbd
00000030: 04fb 2fbd b75b 5abe 14db 3abd f5bb 96bd
00000040: 9159 b33d 1110 18bd 4afd 7abd be34 df3e
00000050: fdf5 d2be 1bf1 5f3e 5595 81be ba32 463c
00000060: 89e8 05bc a423 89bc 197f 11bd d302 04c0
00000070: 1ac2 3abd 6b18 9bbe 7ed1 2d3e 3053 11bf
00000080: 1891 533c 63db 11c0 deec 26bc 69a8 3dbd
00000090: 85fb fcbe a5c7 3a3d f83a 833d b823 34bc
000000a0: 55f8 ebbc b1a7 e53d cbff e8be c3d6 80bc
000000b0: cc8e 9ebf 0ce2 d53e fad0 6c3d 4c9e 113f
000000c0: 8a9a 9fbe 10a6 87bc 001a 02bf 34cb 43be
000000d0: aaf1 233b e572 7c3c e12c 62bf bc17 d4be
000000e0: 2991 ee3e 0bbc 84bc 697f fa3c cce7 13c0
000000f0: a15d b3be b273 82bb 3703 133d 064a c83e
00000100: 8101 cc3c 7796 e5bc 3003 d43c 5eab 923e
00000110: 0735 5b3d abfd c73d f1c5 84bf 7518 08be
00000120: db1c dabe 8014 eebc 49ad 413e b0f8 fc3d
00000130: 1947 813d dcdd 893c 6292 5d3d 1469 4c3d
00000140: b98c bbbc 610c aebc 5678 d3bc 68d3 393d
00000150: 9bd7 87bc ac84 eabd 8314 523e d18b ffbc
00000160: 4bee 2c3d 2ea5 853d feaa bcbc 5748 c9bc
00000170: 25bf 9cbd 0d59 e03c 031c 2abd 1b1f a0be
00000180: d300 c3bd ff16 a63e 0053 e03c 6099 0c3f
00000190: d79d 8cbd 6411 26be 5815 3f3e c75a 87be
000001a0: 5314 4d3e 7f16 0c3e cb5d b93c 0ffb 343f
000001b0: 07d5 9fbe a3f5 45bd 28fc 743c 8caf a9bd
000001c0: 67f4 2cbf ae2e dfbd 6bc6 f23b a79e d9bc
000001d0: da03 34be 2f1e 013e a2cb d2bc 2ce1 d6be
000001e0: e458 2dbe a7cc a43b 60e6 99be 098e 503f
000001f0: daca 22be 5c27 8bbc b951 3dbd 03be 163d
00000200: e539 eabc 40d7 403c dc3f 1f3f 5b75 893e
00000210: 0d2d aebc f73d ee3c 7fa5 abbc a928 7d3c
00000220: 2539 363d f563 293d 2220 dabd 8a3c 28bd
00000230: 8f14 66bd 5487 56bd 87a6 a9bc e76d b7bc
00000240: b443 a3bc 5b9d 0b3d c7e5 62bd f60a d03c
00000250: 7af0 39bf 6b9f 86bd e3f4 b4be 441a 21be
00000260: 8d84 2bbd 74d5 6d3d 5e4e f53e 53c6 54bd
00000270: be7b b73e fc5b ecbe d40a 76bd 2c14 49bd
00000280: ee07 1f3e 4783 153e 17ed 8d3e 757f 6d3f
00000290: 4cbf 5d3d f349 223c 0876 2abd ea4f 623d
000002a0: 6356 763e 2509 d4bf ad8c e8bd 891e dabc
000002b0: 42b5 21bf f23f 5fbd 15f9 18bc 4de9 8d3d
000002c0: 3e28 803e cc60 16be a1a3 a3bd cd61 d5be
000002d0: 0b41 0abf 0b9b cf3e 35cb 973d 3e68 52bd
000002e0: b6e7 5c3e ca92 443d bce9 493d dbda 83bc
000002f0: bbb6 38be e9f2 26bd a616 37bd 6083 e83e
00000300: 28b4 b33c 7745 b2be 6f85 263f b565 c43b
00000310: bb26 babe a204 12bd e4f4 d7bc 7a45 05be
00000320: 74cc 44bd f256 3dbe e727 ecbf 551c 01bf
00000330: ac1e 55bd 3ed1 f33d 444a 053e cf34 f3be
00000340: 3d23 033d f370 4c3c 82d8 993c 3d5d 3ebd
00000350: 2f07 b6bd 87c7 e3be 4d3a 223e 64a3 353d
00000360: 1532 343d 3b04 23be 0007 493d 82bd 403d
00000370: 3e3d 01c0 6b8d 6dbd 4b18 72bd 7a0c e7bd
00000380: b2d2 f83c b788 26bd fd64 a2be 099b db3c
00000390: 5d6f 47bd ed09 d33c e47c 253f c994 8f3c
000003a0: 56d6 943e 5446 1f3c 87a8 94bd e724 963e
000003b0: 507f e2ba f880 c4bc d631 ab3c 4fac 37bf
000003c0: d5f4 97be 4c79 483e 73a1 643e 0e7a acbc
000003d0: f1f5 a43c 5089 4ebd 150e ec3c ddf1 bcbb
000003e0: b9c0 3bbe 91cb 64bf 85eb 863e 4b86 f23e
000003f0: 5f83 293c 0165 963c 0044 62bd d2da efbc
0.038200077 -0.03918778 0.022110155 -0.0122221 0.23095241 0.12773034 0.36271587 0.05079984
-0.016973319 -3.3163776 0.35695177 -0.03893242 -0.042963997 -0.21324049 -0.045619085 -0.07360069
0.08757318 -0.037124697 -0.06127671 0.43594927 -0.412033 0.21869318 -0.25309244 0.012097055
-0.0081731165 -0.016740628 -0.0355216 -2.0626724 -0.045595266 -0.30292067 0.16974446 -0.5676756
0.012913011 -2.2790153 -0.0101883095 -0.046303187 -0.49410644 0.045600552 0.06407732 -0.010994844
-0.028804937 0.11213625 -0.45507655 -0.015727406 -1.2387328 0.41774023 0.057816483 0.56882167
-0.3117259 -0.016558677 -0.5082092 -0.19120485 0.002501587 0.015408252 -0.8834973 -0.41424358
0.46595123 -0.016202947 0.030578332 -2.3110228 -0.3503237 -0.003981077 0.035891738 0.39118975
0.02490306 -0.028025849 0.025880426 0.28646368 0.053517368 0.0976518 -1.0372907 -0.1329058
-0.4260014 -0.02906251 0.1891376 0.12352121 0.06312389 0.016829424 0.05409468 0.049904898
-0.02289425 -0.021246137 -0.025814217 0.04536763 -0.0165823 -0.114510864 0.20515637 -0.0311946
0.04221944 0.06525646 -0.023030754 -0.024570627 -0.076536454 0.027386213 -0.04153062 -0.31273732
-0.095216416 0.3243942 0.027383327 0.5492153 -0.06866043 -0.16217571 0.18660486 -0.26436445
0.20027284 0.13680457 0.022627732 0.70695585 -0.31217214 -0.04832996 0.014952697 -0.08285436
-0.6756043 -0.10897575 0.007408907 -0.02656491 -0.17579594 0.1260917 -0.025731865 -0.41968668
-0.1692844 0.0050292793 -0.30058575 0.8146673 -0.15897694 -0.016986541 -0.046220515 0.036802303
-0.02859206 0.01177007 0.62206817 0.26847348 -0.021261716 0.029082282 -0.020952938 0.015451589
0.04448809 0.041355092 -0.1065066 -0.04107336 -0.05617195 -0.052375153 -0.02070929 -0.022391273
-0.019929744 0.034085613 -0.055394914 0.025395852 -0.72632563 -0.06573375 -0.35343084 -0.15732676
-0.041874457 0.058064893 0.47911352 -0.05194695 0.35836595 -0.46163929 -0.06006892 -0.049091503
0.15530369 0.1460086 0.27719948 0.9277261 0.054137513 0.009905326 -0.04161647 0.055251993
0.24056391 -1.6565291 -0.11354957 -0.026625888 -0.631672 -0.054504342 -0.0093367295 0.06929264
0.25030702 -0.14685363 -0.07990194 -0.4167618 -0.540055 0.40547976 0.074118055 -0.051368944
0.21572766 0.04799155 0.049295172 -0.01609557 -0.18038456 -0.040759 -0.044699334 0.4541273
0.021936491 -0.34818622 0.65047354 0.0059935697 -0.36357674 -0.03564895 -0.02636189 -0.13014784
-0.048046544 -0.18490198 -1.8449677 -0.50433856 -0.052031204 0.11905144 0.13016611 -0.47501227
0.032016028 0.012478101 0.018779997 -0.046475638 -0.08888089 -0.44488165 0.15842552 0.044345275
0.043993074 -0.15919583 0.04907894 0.04705573 -2.019363 -0.057996195 -0.0591052 -0.112816766
0.030373905 -0.040657725 -0.31717673 0.026807325 -0.04869019 0.025761569 0.6464369 0.017527001
0.29069775 0.009721357 -0.072587065 0.2932503 -0.0017280374 -0.023987278 0.020897787 -0.717473
-0.2967898 0.19577521 0.22327213 -0.021054294 0.020136805 -0.05042392 0.028815309 -0.005766137
-0.18335237 -0.8937312 0.26351562 0.47368082 0.010346263 0.01835871 -0.05524063 -0.029279146

fc2.bias f4 [300]
00000000: 89f4 1cc0 1759 f1be 3465 a6bf fb4c 3cbf
00000010: 073d 203e f9f2 f9be e9a0 903e 9d27 b33f
00000020: 80e2 2fc0 7781 69be fc6b a53f 44ba d33e
00000030: 550c b53f de54 473d f3a3 bd3f 49bc 423f
00000040: db6d 683f 7d64 e4bf cde7 25bf b128 193e
00000050: 4ccb 89bf d810 373f c080 81bf 58d3 103f
00000060: d449 06bf fe24 3abe ad60 f5bf c3e3 3ebf
00000070: 4383 64be 4c28 06be 6abd 3dbd 048b 4e3e
00000080: f675 91bf a341 9f3c 4250 ff3e 3842 6b3f
00000090: 8c83 72bf 7dd3 64bf 3c8d babf d544 f3bf
000000a0: 432e 843e 51bd e7be 6e53 8cbf 284f 25bf
000000b0: 81f1 183f 3d4b 75bf fe29 95bf ceaa 61be
000000c0: d91c d5bf a19c b63f c889 003f 83f7 063f
000000d0: f343 04c0 d130 7f3f 82ed 28c0 bb75 bc3f
000000e0: 6362 7b3f 99c4 a3be 8c36 85bf b9ea cbbf
000000f0: 8e34 0140 7cab c8bf 0447 febe 0be3 88be
00000100: 6e64 1fbf 6a46 babe 5dbd 8c3f e640 433e
00000110: b8ca 903f ed72 f53d be71 09c0 1c2e b23c
00000120: 74b2 02bf c195 82bf baf5 20bf c484 553e
00000130: 1621 bd3f f776 823f c1c5 603f 1cc5 88be
00000140: 2b46 8fbe 481e e1be 0a01 873f 8da5 3b3f
00000150: 55a8 0d3d 7d77 bcbf a2a4 93bf dded 0a3e
00000160: ee20 593f 9006 a4be fae0 563f d3f1 f23c
00000170: 3bbf 2fbe c4da 86c0 2000 c63f ce13 1e3d
00000180: 14cf dd3c 4b2a 303f 6579 19be c689 a5bf
00000190: efd1 843e 9569 6ebf c8a0 7bc0 75df af3f
000001a0: 7b50 c4bf 725b 07bf f4c2 64bf 12bd 1d3f
000001b0: ead8 abbf 3b99 0f3f e08e cc3e 7f19 2dbf
000001c0: 48d0 b5bf 687a 8c3f 0d76 6a3d 03c5 893e
000001d0: ac51 a2bf e65d bc3e 2621 b8bf 5fa1 193f
000001e0: a029 953f b5ae d03f a1fc 033e 750d 3d3c
000001f0: 1b77 663f 3851 12c0 c39e adbf 1e28 943f
00000200: 5ca5 4e3f 3a71 5d3e 949b 89c0 49ef b13f
00000210: 187e 0640 f337 23bf ddb3 38bf 5d55 aac0
00000220: cf2c 9dbe 4d24 183f 0993 8dbf ec17 493d
00000230: 8941 9bbf f13b a23e 0bf8 28be 64e1 fcbe
00000240: f057 11be 7cfa 63c0 87ec 6a3f ea12 923f
00000250: 8667 3abe 89d5 d03f fc2f 833f 4bac 67be
00000260: 2d61 85bf 7c88 973f f36f 9ebe a57f bdbf
00000270: 410d 89bd 3c79 e43e a22c 98bf 85ac 7bbf
00000280: 6a4e f0bf 09a6 15bf cfeb 9fbf c06e 94bd
00000290: 6e76 c23f 1e72 c83f 8338 1ac0 7cd7 863e
000002a0: 3a28 a43d 79cf 1f3d ada8 143f ec02 b53e
000002b0: 57d9 a2bf 95c3 6cbf e2f6 f4bf 054a b03f
000002c0: 4af5 8bbf b2fe a9bf 774a 71bf c0e5 0cbe
000002d0: 1e6e 9dbd 9d01 ad3f c2f0 2cc0 d8de 6fbf
000002e0: 8d28 c7bf 9fdf b1be 346c 2ac0 7f26 5ac0
000002f0: e9e2 fc3d 5ae2 99bf d745 903f abb7 ffbd
00000300: 62c3 b33e a048 0e3d d9e5 e43e fbd1 40bf
00000310: 8dca a03e 769b 6a3e 4ca7 06be c7ef 0d3f
00000320: 377f 5bbb c591 d6bf eb28 c1bd ebc6 ebbf
00000330: 349d d43d be1b 833f 82a5 96be aa53 bebe
00000340: 4685 a1bf c5cc 14c0 16a5 e43e 3064 35bf
00000350: c96f 8e3f 45b1 893e 7776 57bf 21c1 2b3f
00000360: 280c 7e3f 6a39 81be bc6f 01c0 c072 86bf
00000370: 3609 cebe 1393 bcbf 90b2 4fbf 610f 62bf
00000380: 4968 d3be 42e0 253f ae19 6dbf b540 f03f
00000390: 49ca 1fbe aa49 62bf 6ebe cabf 3736 15bf
000003a0: 9af2 29be 4485 bf3e 0a16 74bf e273 2dbf
000003b0: 97ac 16bf 2264 d4bf cc96 32bf 971e 19bf
000003c0: 3016 b83f 0b3f 89bf f1fa eebf d078 4dbf
000003d0: 7d7e d2bf 6ee1 10c0 4005 5ebf 45a2 d83f
000003e0: c418 9abf 21c3 97bf 6efe 433f 6911 3abf
000003f0: 751c cfbe 77f9 bebf bf16 82bf b87e 6d3f
-2.4524252 -0.47138283 -1.2999635 -0.7355496 0.1564828 -0.48818186 0.28247765 1.3996464
-2.7481995 -0.22803293 1.2923579 0.41353047 1.4144388 0.04866492 1.4815658 0.7606855
0.90792626 -1.7843167 -0.64806825 0.14956929 -1.0765166 0.71510077 -1.0117416 0.56572485
-0.524564 -0.18178174 -1.9170128 -0.74566287 -0.22315697 -0.1310131 -0.046323217 0.20170218
-1.1364124 0.019440478 0.4986592 0.91897917 -0.94731975 -0.89385206 -1.4574351 -1.9005381
0.25816545 -0.45261624 -1.0962961 -0.6457391 0.59743506 -0.9581793 -1.165344 -0.22037813
-1.6649429 1.4266549 0.5021024 0.5272142 -2.0666473 0.9968386 -2.6394963 1.4723428
0.98197 -0.3198593 -1.0407271 -1.5931007 2.0188327 -1.5677333 -0.49663556 -0.2673572
-0.6226262 -0.36381847 1.0995289 0.19067726 1.1311865 0.11984811 -2.1475673 0.021750502
-0.5105355 -1.0201951 -0.6287495 0.20851427 1.4775722 1.0192555 0.8780175 -0.26712883
-0.2798322 -0.43968415 1.0547192 0.73299485 0.034584362 -1.4723965 -1.1534617 0.135673
0.8481587 -0.32036257 0.83937037 0.029656326 -0.17162792 -4.214205 1.5468788 0.038593106
0.027076282 0.68814534 -0.14987715 -1.293267 0.25941417 -0.93129855 -3.9316883 1.3740069
-1.5337061 -0.5287391 -0.89359975 0.61616623 -1.3425572 0.56093186 0.39952755 -0.6761703
-1.4204187 1.0974855 0.05724149 0.2690812 -1.2681174 0.3679039 -1.4385116 0.6001186
1.1653328 1.6303316 0.12889339 0.011538853 0.9002549 -2.2862072 -1.3564075 1.1574743
0.8072107 0.21625224 -4.3002415 1.3901149 2.1014462 -0.63757247 -0.7214945 -5.3229203
-0.3069825 0.5943039 -1.1060497 0.04909508 -1.2129375 0.31686357 -0.16500871 -0.4939071
-0.14193702 -3.5621634 0.9176716 1.1412022 -0.18203554 1.6315166 1.0249019 -0.22624318
-1.0420281 1.1838527 -0.30944785 -1.4804579 -0.06691981 0.44623744 -1.1888621 -0.9831012
-1.877393 -0.58456475 -1.2493838 -0.072476864 1.5192392 1.5659826 -2.4096992 0.26336277
0.08015485 0.03901622 0.5806988 0.35353792 -1.2722577 -0.92485934 -1.9137843 1.3772589
-1.0934231 -1.3280852 -0.9425425 -0.13759518 -0.07687019 1.3516117 -2.7021947 -0.9369941
-1.555925 -0.34740922 -2.6628542 -3.4085996 0.12347967 -1.2022202 1.1271313 -0.12486204
0.35110003 0.03473723 0.4470661 -0.75320405 0.31404534 0.22910866 -0.13149756 0.55443996
-0.0033492574 -1.6763235 -0.094316326 -1.842008 0.103815466 1.0242841 -0.29423147 -0.37173206
-1.2618797 -2.3249981 0.446572 -0.70856 1.1127864 0.26893058 -0.8416514 0.67091566
0.992373 -0.25239116 -2.0224447 -1.0503769 -0.40241402 -1.4732383 -0.8113184 -0.88304716
-0.412905 0.64795315 -0.9261731 1.8769747 -0.1560451 -0.8839365 -1.5839365 -0.5828585
-0.16596451 0.3740636 -0.9534613 -0.6775495 -0.588571 -1.6593058 -0.6976135 -0.598123
1.4381771 -1.0722364 -1.8670331 -0.8026247 -1.6444851 -2.2637591 -0.8672676 1.6924521
-1.2038808 -1.1856424 0.76560104 -0.72682816 -0.40451398 -1.4919881 -1.0163192 0.9277148

last_fc.weight f4 [8, 300]
00000000: dd88 4e3b e3f0 cd3c eb91 5f3a 32f0 1f3d
00000010: 54c1 e33c 0905 98bc d863 c63c 5406 073c
00000020: 50d2 e4ba a749 98bc 2426 73b9 c188 b73d
00000030: dc38 8a3d 6633 4e3c 048f fe3b cafd d73a
00000040: e0e5 a5bb 2336 3a3d 4681 083b f619 15bc
00000050: b0fd 0f3d 5a15 b3ba 5dca cfbd fdfa fcba
00000060: 4e48 aabc 4a31 b33d 6a70 efbc 7618 a03d
00000070: 9c0c 503d 7a7d 7f3b 2dfb 8e3c 080c 793c
00000080: 1fd1 0e3d 09b2 b1bb 4ce6 893d e4db 8b3d
00000090: 850f 0dbd b0d0 7a3e b70d 18be 2843 4ebd
000000a0: 4a60 ba3c 3eaa 95bc 9207 fa3d f1da 493d
000000b0: 178a ccbc dc05 53bc 4421 c83b 274e 4f3d
000000c0: c869 01bc 8dce 1f3c 253c aa3c 8cd5 d539
000000d0: 48fd 053e 69d8 003b 5b2d 2c3d bdbb 213e
000000e0: a8dc d23b 0fce 8a3d 7df6 eabd 6078 d03d
000000f0: 9a23 a13d 26a5 6cbd 24f8 f13b 4179 2e3d
00000100: fbc4 c93d 993e 873d 5e59 e43b ea9d 8bbb
00000110: dcaf e8bd 7634 833d cc98 f4bb 46e4 df3c
00000120: 3b4e e43c 851f 8dbd 52dd 5e3b f3c4 293b
00000130: ab4e 9ebb 025b 323a 70c7 123e 7774 af3d
00000140: d375 5abc 33d8 9cbd da09 27bd 994d d33c
00000150: d96f 773c 6c29 fabb 6bee 44bd 3ce4 7d3c
00000160: 315b b2bd 3846 bebd cf92 e33a ebf9 bcbc
00000170: f517 86bc a821 f93b fcd8 123e 3f3b d3bd
00000180: 8954 1bbd 5c41 68bc fd5f a93b c8dc 72bb
00000190: 77cf 8d3c ecf8 343d 77b0 b0bb 05fe 1cbd
000001a0: 17ae 193d 2989 443b 5780 0ebd 2806 bdba
000001b0: 3b33 e93d c302 8bbb 49ab bebd 9f19 933b
000001c0: ff54 3cbc 5e9e 48bc f217 d2bc 7398 bfbb
000001d0: ef07 39be 9a9c 253e 0d60 a7bc d53f 793d
000001e0: cf1b 1ebc bff8 c1ba 3931 083c 9c66 983d
000001f0: ed49 c4bc 4395 853d 7e36 88be 3f50 913c
00000200: 29a1 753b 1e91 563c 6fe8 c73c 5edf c73c
00000210: 9267 303d 9e0d c5bd 9c29 dbbc b8c4 2c3d
00000220: 2b52 3b3d be65 cd3c 4d6c b53c f7a8 803b
00000230: 78c1 b43d 30bc 1cbb 9ba1 5d3c 9f1a 823c
00000240: 946b b03d 09a2 e63c dbdf b43b 3199 2e3c
00000250: 4970 513d 3688 ef3b 428d f2bc ef2e d0bc
00000260: d55e d4bd e309 323c fa9c e3bc ec54 bf3d
00000270: 8a93 133e e601 d03d 26cc 4bbb 3e9b 17bd
00000280: eff6 6fbd 0824 7e3d c207 fd3b dbb5 68bb
00000290: e152 ad3c 2861 9dbc 621c a6bd 45ff 573d
000002a0: 42c2 a9bd 5bf6 b0bb 4ac7 1c3c a3cb d13c
000002b0: c3e0 9fbc b8e4 babc e345 e13c 28f3 713d
000002c0: fb35 193d 12e1 263d a659 ce3c 240e 9dbc
000002d0: 8565 f43c f05f 81bc 51d9 d23b a608 76bc
000002e0: 3031 96bc 9cfa 653d 29d0 673b 617c 09bd
000002f0: dfe8 183b f55e a63d 997c d33d 5afe 18be
00000300: 9ced 8a39 2448 c5bc e302 563a 6595 0fbe
00000310: bb9d 4bb9 e5e5 453c 4f0f d23d 28b4 843c
00000320: d18c 33bc 01a4 ebbc f2ab 853b 7003 433d
00000330: fd43 94bc 19ff d53c 61f7 02be e7b0 2abe
00000340: 8d5c e2bd b659 41bd 7c85 0f3e d1e7 7ebd
00000350: 6694 84bb 2ec5 0ebc b909 173a a3f7 733b
00000360: 5670 1cbe 3e80 5abc 89a2 0cbd a14a 80bd
00000370: 385a 4bbc 9edd a3bd 3ff5 1bba f3d0 983d
00000380: d22b 2abe d5fe 42bc 7eb2 e63c fbc5 983c
00000390: cd6e 043e 08b2 ab3c f655 033e 0da5 10bd
000003a0: 46a3 6bbb cd37 e83a f58e 09bd e23b de3c
000003b0: ad0e a5bd 2759 72bd 864c afba 0542 c0bc
000003c0: 74db 1a3c 765c 08bd f4fd e5ba 9d0f d93d
000003d0: 8f55 0dbd cd52 8bbc 4352 8dbd 962c 26be
000003e0: 1680 913c 9ace a2bd 3093 af3d 35cd a43d
000003f0: 2894 a8bc 0926 5b3b 91f4 8bbc 9041 063d
0.0031514682 0.025139278 0.00085285184 0.039047427 0.027802147 -0.018557088 0.024217531 0.008241255
-0.0017457698 -0.018589808 -0.00023188494 0.089616306 0.06749126 0.0125854965 0.0077685136 0.0016478833
-0.0050628036 0.045461785 0.0020829006 -0.009100428 0.035154045 -0.001366298 -0.101460196 -0.0019300875
-0.02078643 0.087496355 -0.029228408 0.078171656 0.050793275 0.0038984702 0.017453754 0.015200622
0.034867402 -0.005422835 0.06733379 0.0682905 -0.03443863 0.2449367 -0.14848982 -0.050357014
0.022750992 -0.018269654 0.12208475 0.049281064 -0.02496819 -0.012879815 0.006107481 0.05061164
-0.007898755 0.009753835 0.020780632 0.0004078563 0.130849 0.001966024 0.04203544 0.15794273
0.0064349957 0.06777584 -0.11472795 0.1017921 0.078681186 -0.057774685 0.007384317 0.042596105
0.09852024 0.066037364 0.006968661 -0.004260768 -0.113616675 0.064064905 -0.007464504 0.027330529
0.027869334 -0.068907775 0.003400643 0.0025904744 -0.0048311553 0.00068037224 0.14333892 0.08567136
-0.013333756 -0.07658424 -0.04078088 0.025793837 0.01510235 -0.0076343324 -0.048078936 0.01549631
-0.087088 -0.09290737 0.0017362478 -0.023068389 -0.016368845 0.007602889 0.14340585 -0.10314035
-0.037922416 -0.014175739 0.0051689134 -0.0037057865 0.017310841 0.044182703 -0.00539213 -0.03832819
0.03751954 0.002998898 -0.034790363 -0.001442139 0.113867246 -0.0042422726 -0.09310014 0.0044891383
-0.011494874 -0.012244789 -0.025646184 -0.005847031 -0.18069433 0.1617302 -0.020431543 0.06085189
-0.009650185 -0.0014798864 0.008312517 0.07441446 -0.023961032 0.0652261 -0.26604074 0.01773846
0.0037480092 0.013096122 0.024402825 0.024398502 0.043067522 -0.09621738 -0.02675324 0.042179793
0.04573266 0.025072929 0.022146368 0.003926392 0.08825964 -0.002391588 0.013527299 0.015881835
0.08614269 0.028153436 0.0055198497 0.010656641 0.051132474 0.007309939 -0.029608373 -0.025413005
-0.1036965 0.010866615 -0.027784813 0.093423694 0.1441175 0.10156612 -0.0031097024 -0.037013285
-0.058585104 0.06204608 0.007721872 -0.0035508785 0.021157684 -0.019211367 -0.08110882 0.05273368
-0.08289005 -0.0054004616 0.009568999 0.025609797 -0.019516354 -0.02281414 0.027499145 0.059069782
0.037404995 0.040741988 0.025189232 -0.019171782 0.029833565 -0.015792817 0.0064345975 -0.01501671
-0.018334001 0.056147203 0.0035371876 -0.033565883 0.0023332161 0.0812358 0.103264995 -0.14940777
0.00026498444 -0.02408225 0.00081638823 -0.14021833 -0.00019418348 0.012078737 0.10256826 0.016199186
-0.010958866 -0.028764727 0.0040793354 0.0476107 -0.018098826 0.026122617 -0.1278968 -0.16669045
-0.11052809 -0.047204696 0.14015764 -0.062232796 -0.004046011 -0.0087140035 0.00057616417 0.003722646
-0.15277228 -0.013336239 -0.034334693 -0.06264234 -0.012411647 -0.080012545 -0.0005949325 0.07461729
-0.16618279 -0.011901577 0.028161284 0.018649092 0.12932892 0.020958915 0.1282576 -0.035313655
-0.0035955473 0.0017716825 -0.0335836 0.027128164 -0.0805944 -0.059167054 -0.0013374246 -0.02346898
0.009451736 -0.033291303 -0.0017546997 0.10598681 -0.034505423 -0.017007256 -0.06900456 -0.16227946
0.017761271 -0.07949562 0.08572996 0.08046953 -0.020578459 0.0033439419 -0.017084392 0.03277737

last_fc.bias f4 [8]
00000000: b216 a3ba 4de9 acbd 7347 b03c 8eb2 8dbc
00000010: 10bf 013d 2086 0a3e d6da 11bd e939 55bd
-0.0012442677 -0.08442936 0.021518445 -0.017297056 0.031676352 0.13527727 -0.03560909 -0.05205718

last_fc_log_std.weight f4 [8, 300]
00000000: c0a5 f0ba 6886 babc 1aac a1bb 7b5d 763b
00000010: e08a 93bc 6f7f 873b efda a9bc 645a 14bb
00000020: 5256 e9bb 65d7 44bc f1cb a83b bd5d 13bd
00000030: 7882 62bc 6b0e b33b 9fdc b0ba d496 403a
00000040: abbf 89bb a728 76bc ada9 acbc 177a 61bb
00000050: 573e 593c 6900 8939 6ecf 46bd 4dc3 06ba
00000060: c35d e13c d95a 05bd 9d74 e43b eae1 e4bb
00000070: f1cc 673c 01f2 1c3c d082 6bbb 60f9 adbb
00000080: 7c33 48bc 730d 7abc 3143 e4bc 6a5c f8bc
00000090: 6472 40bc d220 123d 5a4f bebb 4b45 cc3b
000000a0: 4f6b 443b 2fc7 473b 7ab8 05bc c27b 8f3c
000000b0: d282 f1bb c933 343b 99ae 513b 803c cf3b
000000c0: 0de3 353c 59ba 92b8 0af1 3cbb 787e 00bc
000000d0: b359 513d 5337 3c3b ff29 603c 8e8d cebd
000000e0: 77c4 fa3b 7002 8bbb 6da4 5c3c f9e7 883c
000000f0: dffb 673a 368a babc 39dd a9ba 1b36 20bd
00000100: 6069 22bc 33b6 07bc f07f e23b 9ad7 a9bb
00000110: f46f f7bc bed0 c1bc 8a1a 82bc 281a c03a
00000120: 5267 973b 0612 eebc 8b12 b3bb fd43 80ba
00000130: 455e 4fbb 605d c3bb bebf b53c b151 1abc
00000140: 0f83 e8ba 942a b5bc 661c aabb 0651 343c
00000150: 664b afbc 401e dbbc a601 3dbc e1bf b7ba
00000160: e1b5 49bc 24ae 63bc 4152 053c 260d 8abc
00000170: a69e 9e3b 1f51 8fbc 0df5 e6bc b810 1dbc
00000180: e938 8139 9884 b2bb 9c50 153c 9ee1 49bc
00000190: fe87 223b b218 4cbc d9ca fbbb 4389 053b
000001a0: f920 033a 291f b8ba 175f bcbb 493b 3a3b
000001b0: f3e7 fcbc 0397 e03b 8c0b aabb 7db0 db38
000001c0: 59ce 9d3c 385c d3ba 6a87 fbba 4726 0a3c
000001d0: d8a9 8cbb 931e acbb 1508 43bc b3d4 3fbc
000001e0: 8249 223b bdc4 f43b b0e4 233c 325e abbc
000001f0: 5d24 ffb9 7080 b7bb d8eb 153d 8936 933b
00000200: 54cf 53bc f825 a73a fb44 0bbc a446 90bc
00000210: 3c82 abbc c06f 4ebc d5c3 283b 9550 a9bb
00000220: 3815 473a 0181 bdba f45c 6ebb 360e 23bb
00000230: 090a a8bc 0200 243c 8316 50bc ebb6 363c
00000240: 61f7 18bb 3660 9a3d 471e 3a3b 1976 fcbb
00000250: 2619 02bd c0a5 c4bb 4970 2dbc 58f3 87ba
00000260: 1b1c d63c 389a 1c3a 3fa5 703c c0d9 80bc
00000270: b820 d7bb 6885 963c aadc 86bc 5bd3 313c
00000280: 67e4 273b 83f3 74bb 95f1 573c 0f16 983b
00000290: de20 86bb 827b 8abb 301e 9039 eff5 6dbc
000002a0: d350 9f3c ddb1 95bb a92e 35bb 34e2 083c
000002b0: eba1 e63b 4036 f23b 9063 d0bc 962b 93bc
000002c0: 8645 20bc cbd4 113d b09f 19bc 14b8 d0bc
000002d0: 108d 9bb9 2c7f cebc d103 1a3c 207c 86bb
000002e0: b17c 35bb 255c dcbb 586a f03c 19ef 2fbc
000002f0: 809a 823b 6a8e 3c3d 0871 d9bb f1b8 88bd
00000300: 745e 22bb 6479 9bbb d573 09ba 382c d8bb
00000310: a148 1f3b 552a 4739 a49b e73c 540c d23b
00000320: 0ba8 0b3c 229e 9d3b 94b4 62bc fc8b 66bc
00000330: ee2a aa3b e603 b4ba d9ce 77bb 6a1c af3a
00000340: eceb 143c 0211 15bc e6c6 0abd 9463 313d
00000350: 1a02 b8bb ca26 ae39 90df 0cbd d28d 603b
00000360: 41cf dbbc 9551 d3bb f265 8dbb 1f3e 83bb
00000370: 9426 c33b 94db e63c 4393 123b 8539 e8bc
00000380: f759 3dbc db25 0c39 638d b9bc e236 4d3c
00000390: 6ad6 7c3c 616f a83a 8c40 4e3c 88ea d9bb
000003a0: 757c e03b bc3e 08bc 89e7 b4bc f157 27bc
000003b0: afac 0e3c 335c 64bc 2e70 cbbc 0c6b 2fbc
000003c0: 1fa7 0dbc 6751 7cbb 52d2 75bc a7a7 d4bb
000003d0: e50c 2cbc 1b72 c83d b5f5 433b 9a15 c5bc
000003e0: 09ae 4dbc f754 963c 5dda 21bc 241b a83b
000003f0: 4e42 c3bc 2dd5 2a3c 6ee5 34bd 862a 9dbb
-0.0018359944 -0.022769168 -0.004933846 0.003759234 -0.018010557 0.0041350643 -0.020734278 -0.0022636885
-0.007120886 -0.012014245 0.005151265 -0.035978068 -0.0138250515 0.0054643652 -0.0013493485 0.0007346694
-0.004203757 -0.015024341 -0.021077001 -0.0034405047 0.013259492 0.00026130982 -0.048537664 -0.00051407964
0.02751053 -0.032557342 0.006971909 -0.006984939 0.014147983 0.009579183 -0.0035936125 -0.005309269
-0.012219306 -0.015261996 -0.02786407 -0.030317504 -0.011746023 0.03567583 -0.0058077993 0.0062338463
0.0029971187 0.0030483713 -0.008161658 0.017515067 -0.0073703313 0.0027496687 0.0031994937 0.006324351
0.011101496 -6.9965325e-05 -0.0028830194 -0.0078426525 0.051110934 0.00287195 0.013681888 -0.10085593
0.007652815 -0.004242234 0.013466937 0.016712176 0.00088494824 -0.022770982 -0.0012959606 -0.0391141
-0.009912819 -0.008283186 0.006912224 -0.0051831724 -0.03020475 -0.023659106 -0.015881795 0.0014656233
0.004620471 -0.029061329 -0.005464857 -0.0009785887 -0.0031641882 -0.005962059 0.022186156 -0.009418891
-0.0017739254 -0.02211503 -0.0051913736 0.011005646 -0.021398257 -0.026747823 -0.011536038 -0.0014018976
-0.01231143 -0.013896499 0.008137287 -0.016851973 0.0048406897 -0.017494736 -0.028193021 -0.009586506
0.000246472 -0.0054479353 0.009113457 -0.012321858 0.0024800296 -0.01245706 -0.0076840934 0.0020376004
0.0005002167 -0.0014047372 -0.0057486403 0.0028416684 -0.03087232 0.0068539395 -0.005189365 0.00010475607
0.019263433 -0.0016125506 -0.0019190137 0.008431978 -0.004292708 -0.005252668 -0.011903782 -0.011708426
0.0024763052 0.007469742 0.010003254 -0.02091894 -0.00048664483 -0.0056000277 0.03660187 0.004492585
-0.012927849 0.0012752404 -0.008500333 -0.01761181 -0.020936124 -0.012599885 0.002575149 -0.005167077
0.00075944094 -0.0014458002 -0.0036371322 -0.0024880297 -0.020512598 0.0100097675 -0.01270068 0.0111520095
-0.0023340809 0.07537882 0.0028399394 -0.007704508 -0.031762265 -0.0060012043 -0.010585853 -0.0010372205
0.026136449 0.0005973908 0.014687835 -0.015728831 -0.0065651797 0.01837416 -0.016462643 0.010853614
0.0025618316 -0.003737659 0.013180156 0.0046413015 -0.0040932735 -0.004226149 0.00027488312 -0.014523967
0.01944772 -0.004568322 -0.002764622 0.008354712 0.007038345 0.007391721 -0.0254381 -0.01796512
-0.009782201 0.035603326 -0.009376451 -0.0254784 -0.00029669004 -0.025207125 0.009400324 -0.0041041523
-0.002769273 -0.0067248517 0.029347584 -0.010738158 0.003985703 0.046034254 -0.006635789 -0.066759
-0.0024775537 -0.0047446955 -0.00052433956 -0.006597068 0.0024304765 0.00018993889 0.028272457 0.006410161
0.008523951 0.0048101107 -0.0138369985 -0.014071461 0.005193106 -0.0013734072 -0.00378125 0.0013359908
0.009089451 -0.009098293 -0.03388109 0.043307856 -0.005615485 0.00033216766 -0.034392893 0.003426422
-0.026832225 -0.0064489343 -0.0043151313 -0.004005208 0.0059555266 0.028180875 0.0022365607 -0.02834774
-0.011557094 0.00013365543 -0.022650426 0.012525292 0.01543198 0.0012850576 0.012588631 -0.0066502728
0.006850774 -0.008315738 -0.02208306 -0.010213838 0.008708163 -0.013937998 -0.024833765 -0.010706674
-0.008645802 -0.0038500668 -0.015003758 -0.0064897123 -0.010501121 0.09787389 0.0029901091 -0.024058152
-0.0125537 0.018351061 -0.009878722 0.0051301885 -0.023835327 0.010426802 -0.044164114 -0.004796329
