exploration_plot/pretrained/antgoal-0728/psi.pth (torch, 896896 bytes, 8 tensors)

fc0.weight f4 [300, 122]
000000 01 fc 9d bc bc 23 d8 bc d4 a2 bc be 4b 35 ac be
       -0.019285204 -0.026384227 -0.36842978 -0.3363441
000010 b6 31 3f 3e 70 66 ba 3e a9 26 55 bc 41 46 b0 be
       0.18671307 0.3640628 -0.013009706 -0.344286
000020 bf f6 0d bf 78 c5 32 3d a0 6e 01 3f c6 5e b6 bd
       -0.5545463 0.043645352 0.50559425 -0.08904795
000030 40 aa 04 3f b0 8c c6 3c c4 e8 03 bf bb 5a 22 bd
       0.5182228 0.024237007 -0.5152705 -0.03963731
000040 80 1d 80 be 81 9b 96 3d b5 b1 07 be 8b 19 2e 3d
       -0.25022507 0.07353879 -0.13251384 0.04250483
000050 ef 51 da 3d 04 19 84 3d c6 16 3f 3d 85 13 df 3c
       0.10660159 0.06450084 0.046652578 0.027230987
000060 5c 65 ab 3d d6 9c 86 bd 13 d7 f2 3d 67 df 75 bd
       0.08368942 -0.06572883 0.118574284 -0.060027506
000070 90 63 8d 3d 44 36 0d bd 09 44 a6 3c 33 1f 1d 3d
       0.06903756 -0.03447558 0.020296114 0.038359832
000080 f7 ff ce bc ef 93 33 bd 8e 88 b5 3c 03 9f 12 bd
       -0.025268538 -0.043842252 0.02215984 -0.035796177
000090 f3 62 5a bd e7 ba 7f 39 7c e3 89 3c 34 8a b8 bc
       -0.05331702 0.00024388322 0.016832106 -0.022526838
0000a0 3b c8 68 bd 3b c9 7b ba 9f 69 97 3b 19 f6 d0 bc
       -0.05683158 -0.0009604876 0.0046207453 -0.025507974
0000b0 2e 84 b5 bc 0a 4e bf 3c 49 69 1e bc c9 1d 84 bc
       -0.022157755 0.023352642 -0.009668657 -0.016127484
0000c0 74 fe 07 bd 60 4c 00 3d e5 bc 57 3d 9a e9 19 bd
       -0.03320165 0.031322837 0.05267038 -0.037576295
0000d0 67 53 0f 3d 52 3d d0 bc 03 c0 16 bd a6 1b 07 bd
       0.034991648 -0.025419865 -0.03680421 -0.032985352
0000e0 03 ed fb bc e0 c6 f7 bb 3e 80 18 3d 3f b7 65 3d
       -0.030752664 -0.0075615495 0.037231676 0.05608296
0000f0 ca 85 cb 3c f6 90 4e bd f5 ea 32 3c ca 5e 6a bc
       0.024844069 -0.050431214 0.010920276 -0.014304826
000100 50 6e 2d bd be 1e 5f 3d dc 72 1c bd 31 cb 1b bd
       -0.04234153 0.054472677 -0.038195476 -0.038035575
000110 36 ce 1f 3d f6 17 33 bb 08 04 d0 3c 43 7f 63 bd
       0.039015017 -0.0027327514 0.025392547 -0.055541288
000120 10 bb 9f 3b 91 d4 01 3d b1 0f 6c bd ad ac 5a 3d
       0.0048745945 0.03169686 -0.057632152 0.053387333
000130 a1 11 43 3d 1b 72 84 bb be 99 8e 3b 5a 1b ff 3c
       0.047624234 -0.0040419227 0.0043518236 0.031140972
000140 a7 c3 56 3c fa 7c 88 bc 2b ae ce 3b c2 8c 3d 3d
       0.013108171 -0.016661156 0.0063073835 0.046276815
000150 12 46 4e 3d 9b 84 19 bd 43 71 60 bc 16 bb 47 bd
       0.050359793 -0.037479978 -0.013698879 -0.048762403
000160 45 a2 3e 3d 89 25 0c bd 3b 3d e5 bb 30 55 cc 3c
       0.04654147 -0.034215484 -0.0069958246 0.024942964
000170 7d b0 5b 3d 3f ff 6b bd 2c 1e ed bc 44 43 46 bc
       0.05363511 -0.05761647 -0.028945051 -0.012100998
000180 0a 25 33 bc 6e a1 69 bd 5c 85 d0 3c c6 7d e6 bc
       -0.010934124 -0.057038717 0.025454216 -0.028136145
000190 72 71 5d 3d fe 6d 48 3d 33 3b 4f 3d fa e7 25 3d
       0.054063268 0.04893302 0.050593566 0.040504433
0001a0 60 47 39 3d 2e ed 64 bd 99 6e 31 3c ed eb 41 bc
       0.045234084 -0.055890255 0.010829591 -0.011836034
0001b0 f8 e9 fa bc 9a 54 50 3d c7 3d 58 bd 2c b6 5f 3c
       -0.030629143 0.050861932 -0.05279329 0.013654273
0001c0 38 60 6e bc 15 55 a4 3d a2 0c 2e 3e a1 46 d1 3c
       -0.0145493075 0.080240406 0.16997007 0.025546374
0001d0 9a 3a c9 3d 95 cc 8f bd ea f5 98 bd 79 77 33 3d
       0.098256305 -0.07021443 -0.074687794 0.04381511
0001e0 2f 59 4f be bf 3a 08 3e d7 40 32 3d 9c d6 9c 3d
       -0.20248865 0.1330366 0.043518867 0.07658121
0001f0 e2 88 b7 be 02 76 ce 3c b5 31 d4 be 5b f5 0b 3e
       -0.3584662 0.025202755 -0.41444173 0.13667814
000200 cd ff 3f bf a1 cb b0 3d b7 99 be be 0e d0 61 3d
       -0.74999696 0.08632589 -0.3722665 0.055130057
000210 aa 2f 67 3e e1 c0 16 3e f2 8e a4 3e bf c7 22 be
       0.22576776 0.14722015 0.3214031 -0.1589651
000220 fb d4 4d be 38 a7 de 3b 0c 59 83 bc 11 66 17 3b
       -0.20100777 0.0067948364 -0.016033672 0.0023101608
000230 d2 42 23 3d 52 a0 97 3a 12 86 74 bd 2e 15 de 3c
       0.039858647 0.0011568165 -0.059698172 0.027109709
000240 0a 94 68 bd 0d 55 00 3d 80 c7 9d 3c a7 81 0c 3c
       -0.056781806 0.03133111 0.019260168 0.008575833
000250 2e 95 d7 bc ae 92 ea 3c c4 52 06 ba 36 43 98 bc
       -0.026316252 0.028634395 -0.00051240274 -0.018586736
000260 65 8e 37 3c dc c6 94 bc 2f 57 64 bc fb 1e 6d 3c
       0.011203383 -0.01816123 -0.013936802 0.014472718
000270 36 21 25 bd 0d ac a0 bb 0e f3 a3 3a ca 63 27 3d
       -0.040314876 -0.0049033226 0.0012508349 0.04086665
000280 73 cd 13 3d d8 97 b3 bc 86 8c 49 3d ee 98 e9 3c
       0.036084604 -0.02192299 0.04920628 0.028515305
000290 e4 f5 70 bc 08 e4 e8 bc ad fe 27 3c 4a ea 79 bc
       -0.014707062 -0.028429046 0.0102535905 -0.015253613
0002a0 33 a3 69 bd b6 20 2a 3d 75 c4 ff bc e2 f1 ee 3c
       -0.057040405 0.0415351 -0.031221608 0.029168073
0002b0 19 92 48 bc ad f5 0e bd c7 39 00 bd f6 50 4c bd
       -0.012241864 -0.034902263 -0.0313051 -0.049881898
0002c0 bb 0e 5e bd af 2b e8 bc 7d 68 6a 3d e3 4f d8 3c
       -0.054213267 -0.028341142 0.057228554 0.02640528
0002d0 73 fa dd 3b 18 1f ee 3c e7 14 1a 3d fe 40 d8 3c
       0.0067742406 0.029067561 0.03761759 0.026398178
0002e0 11 28 28 bd 2d 8c 21 3d b3 ab d8 3c e5 df 4a 3d
       -0.041053835 0.039440323 0.02644906 0.04952993
0002f0 14 02 22 bd 2e e6 3f 3d 3d 17 0c bd 47 00 49 3d
       -0.039552763 0.046850376 -0.03420185 0.04907253
000300 72 60 e1 bc e2 d0 c8 3c 4e 33 3e bd e3 5b 33 3c
       -0.027511809 0.024513666 -0.046435647 0.0109472005
000310 35 f1 4b bb 1c 50 03 3d b8 3f e7 bc b3 19 93 bc
       -0.0031119112 0.03205882 -0.028228626 -0.01795659
000320 42 f3 cf bc 5a ea 1e 3d 2a d4 69 bd d1 3e 1a 3d
       -0.025384549 0.038797714 -0.0570871 0.037657563
000330 85 00 16 3d 1f 5a 34 bc 61 f8 0b bc db ee c6 3b
       0.03662159 -0.011007815 -0.008543105 0.0060709543
000340 2f d4 0e bd 2f 12 14 3d 8f 8f 68 bd 89 7e 17 bd
       -0.034870323 0.036150154 -0.056777533 -0.036985908
000350 70 06 31 bd 4a 44 2d 3d 86 60 5a bd 50 75 4e bd
       -0.04321903 0.042301454 -0.05331471 -0.050404847
000360 dd eb 6a bd 8d e8 9c bc 21 12 16 bd 68 3e 6a bd
       -0.057353843 -0.019153858 -0.036638383 -0.05718842
000370 9b ac 13 bd 9f 44 8a 3c 78 47 8e 3c 41 0c 4c 3c
       -0.03605328 0.016878424 0.017368063 0.012454093
000380 d9 5f 33 3d 22 a7 26 bd 88 dc af 3c 6c c1 12 bd
       0.04379258 -0.040686734 0.021467462 -0.035828993
000390 2c c5 d4 3c 25 08 0a bc 41 95 f1 3c 82 7c 10 bd
       0.025972925 -0.008424793 0.029490115 -0.03527499
0003a0 66 97 41 3d 49 22 4b bd 99 13 64 bd 91 3f 28 bd
       0.047263525 -0.049593244 -0.055682752 -0.041076247
0003b0 6b 1a a0 bc 76 a4 8f 3d da e5 5e be c6 0f d6 3c
       -0.019543847 0.0701379 -0.21767369 0.026130568
0003c0 1f ab 7a be 19 f8 f8 3d 53 02 bf 3d db e5 d0 3d
       -0.2447934 0.12156696 0.09326615 0.102000915
0003d0 0f 4f a1 3d 8d 56 70 bd d0 2c f8 be c3 13 bb be
       0.07876407 -0.05867629 -0.4847169 -0.36538514
0003e0 4e c1 5e be 52 81 9d bd ae 01 49 be 78 79 84 3d
       -0.21753427 -0.076906815 -0.19629547 0.06468481
0003f0 46 d6 f6 be 3c 3d fe bc 26 18 0b 3f b6 6b c1 bd
       -0.48210353 -0.031035058 0.5433372 -0.09444372

fc0.bias f4 [300]
000000 bc ce f5 be 53 36 80 3e da 75 fd be 71 f6 b0 be
       -0.48009288 0.25041446 -0.49503976 -0.3456302
000010 1c 0c c3 be 8e 69 38 be 5c d8 f0 be 4f ff cc be
       -0.38095176 -0.18009016 -0.4704007 -0.40038535
000020 de 36 d7 3e 03 de bb be 1d 9b da be 85 18 c7 be
       0.42034048 -0.3669282 -0.42696467 -0.38885894
000030 5d 35 6a be a8 1a f4 be de 60 98 be b0 ac 1b be
       -0.22871919 -0.47676587 -0.29761404 -0.15202594
000040 59 a9 ed be 21 ff 5a 3e 42 e4 81 be 4a 02 91 3d
       -0.46418265 0.21386386 -0.2536946 0.07080515
000050 52 d1 d9 bc 60 07 de be ca bc 15 be 51 e1 d9 3e
       -0.02658907 -0.43365002 -0.14622799 0.42554715
000060 6b 6e e9 be d0 f2 25 be 04 7b 1a 3f 36 98 f5 be
       -0.45592055 -0.16205907 0.60343957 -0.4796769
000070 94 ef ed be 69 7e 98 be cd 79 9e 3e 45 77 ed be
       -0.46471846 -0.29783943 0.30952302 -0.46380058
000080 4e 81 ab be d7 b0 eb bd d2 05 ad 3d 09 73 16 bd
       -0.3349709 -0.11508339 0.08448376 -0.0367308
000090 a4 07 ea be 07 88 fb be cb 9b 3e be e2 dd e1 be
       -0.45708954 -0.49127218 -0.18614118 -0.44114596
0000a0 7b 2c 62 3e 1e 91 9c be db f7 66 be 12 e9 4a be
       0.2208728 -0.30579466 -0.22555487 -0.19815472
0000b0 40 fa f6 be ac 52 a5 bd 20 62 a5 3e 6a 3d d3 be
       -0.482378 -0.08072409 0.32301426 -0.41257793
0000c0 92 dc d8 3d a4 ee a8 be f6 f7 13 3f 2c 39 08 bf
       0.105889454 -0.32994568 0.57800233 -0.5321224
0000d0 1f 4d e5 be a2 a8 a2 be a7 cb 12 bf 59 82 df be
       -0.447854 -0.31769282 -0.57342 -0.43654135
0000e0 26 07 cc be 58 f4 65 be e1 da da be 6d 36 98 bc
       -0.39849204 -0.22456491 -0.42745116 -0.01858064
0000f0 96 d4 e2 be ee b9 a7 be 23 6c ca be c6 1c f5 be
       -0.44302815 -0.3275904 -0.39535627 -0.47873515
000100 04 39 fd be 2f f1 25 be b0 87 aa be 53 fc a7 be
       -0.49457562 -0.16205285 -0.33306646 -0.32809696
000110 02 64 cc be 44 96 89 3e bd f7 d9 be 44 88 b7 3e
       -0.3992005 0.26872456 -0.42571822 0.3584615
000120 5e d8 9a be e4 5d 36 be 77 c3 26 3f cb 44 a4 3e
       -0.302432 -0.17809254 0.65142006 0.32083735
000130 80 d6 9c be 0f 16 a7 be 32 5e 65 be 77 53 36 3f
       -0.306324 -0.32634017 -0.22399214 0.7122111
000140 c0 72 e9 3e 42 e1 95 bd 38 27 a1 be 97 9d e6 be
       0.4559536 -0.07318355 -0.31475234 -0.45042107
000150 31 d5 9e be 6b 1b bf 3c 10 93 d8 be 3e c7 d8 be
       -0.31022027 0.023328504 -0.422997 -0.4233951
000160 21 92 f5 be 5b b2 e2 be 52 df ea be 30 b1 a1 be
       -0.4796305 -0.442767 -0.45873505 -0.31580496
000170 6e 98 b0 be 54 aa 55 be 70 e1 3e 3e 53 ab b1 bd
       -0.34491295 -0.20865756 0.18640685 -0.086752556
000180 23 b3 ef be cb 1a 8f bb 30 d8 ec be fc 3a b7 be
       -0.46816358 -0.0043672076 -0.46258688 -0.3578719
000190 b0 80 e1 be 4c 1e 1b 3f 51 5b ca be a4 1f 5e 3e
       -0.44043493 0.60593104 -0.39522794 0.21691757
0001a0 af 90 08 be 79 4f 8c be c2 1e f1 3d d2 4f a0 be
       -0.13336442 -0.27404383 0.11773445 -0.31310898
0001b0 a6 a9 85 be 70 02 b0 be a9 0b 41 3d d6 6a 50 3e
       -0.26105994 -0.3437686 0.04713026 0.20353255
0001c0 c6 3f c4 be 23 cd e7 be 36 94 91 be db 5d e0 be
       -0.38329905 -0.45273694 -0.28433388 -0.43821606
0001d0 bc 48 95 be 3f 9a d4 be db e2 5b be ee 37 01 bf
       -0.29157054 -0.4152393 -0.21473257 -0.50475967
0001e0 ff bb 3b be 01 c6 47 3e 3b 27 a3 3e 88 e7 d4 3e
       -0.18333434 0.19509126 0.31865868 0.41582894
0001f0 9d 2e b9 be 84 69 ef bd 01 a9 a4 be 10 31 24 3f
       -0.36168376 -0.116900474 -0.3216019 0.64137363
000200 1e ec a6 be f0 17 83 be 4d 1c 83 3e ff d2 8b be
       -0.32602018 -0.256042 0.2560753 -0.27309415
000210 64 91 b0 be 7e 5d 99 3d d8 b3 cc be ae b5 10 3f
       -0.34485924 0.07488535 -0.3998096 0.5652722
000220 5e 64 05 3f 9f 19 a9 be 00 c2 0a be 65 ed 97 be
       0.52106273 -0.3302736 -0.13550568 -0.29673305
000230 44 5d 1a 3f be 28 d1 be f7 c0 b4 3d 42 df 9e be
       0.6029856 -0.40851396 0.088258676 -0.31029707
000240 f7 8b 94 be 21 ae 94 be 45 82 7e be d3 ed 7c 3c
       -0.29013035 -0.290391 -0.24854381 0.015437561
000250 76 84 05 bf d3 52 e2 3e c3 21 22 be 94 49 ab be
       -0.52155244 0.44203815 -0.15833192 -0.33454573
000260 a6 21 8c be 8d 9f 8a be 8e c1 30 be 8d 5c d7 be
       -0.27369422 -0.27074853 -0.17261335 -0.42062798
000270 bb 2a 78 3e 99 43 aa be 1d 01 56 be 76 d5 53 3e
       0.2423505 -0.33254698 -0.20898862 0.20686898
000280 01 76 e0 3c 07 94 a3 be 2c fd d1 3e 84 64 24 be
       0.027400019 -0.31948873 0.41013467 -0.16053969
000290 a5 dc cf be a6 8b 5e 3e 14 88 e5 be 50 52 ca be
       -0.40598026 0.21732959 -0.44830382 -0.39515924
0002a0 b6 ce aa be a1 90 d9 be 2d d4 ac be aa 74 bf be
       -0.33360833 -0.42493156 -0.33755627 -0.37393695
0002b0 14 32 55 3e 20 40 56 be 0f 26 14 bf c6 42 76 3e
       0.20819885 -0.20922899 -0.5787057 0.2404891
0002c0 32 12 c1 be 44 dd a9 be e4 a6 97 be 4d d1 b2 be
       -0.37709194 -0.33176625 -0.29619515 -0.3492531
0002d0 7b 30 98 bd 80 d4 b1 be 78 23 1e bf 22 63 07 bf
       -0.07431122 -0.34732437 -0.6177287 -0.5288564
0002e0 19 31 a8 be bf ff a5 be bf bb e6 be a9 9c f1 be
       -0.3284996 -0.3242168 -0.45065114 -0.47189835
0002f0 ae 58 d1 bd 8e 01 b5 be 07 0e c9 3e 53 2a 10 3f
       -0.102219924 -0.3535275 0.39268515 0.5631458
000300 da 4b 89 be 13 50 d6 be f0 01 fb be b9 71 a7 be
       -0.26815683 -0.41857967 -0.49024916 -0.3270395
000310 a5 82 e1 be d4 5b b8 be 60 9e bd be a4 35 88 3e
       -0.44044986 -0.3600756 -0.37034893 0.26603425
000320 5d 2c b4 be 86 69 b9 be bb 9f f0 bd aa 7f 01 bf
       -0.35190096 -0.3621332 -0.11749216 -0.50585425
000330 10 26 f1 be ea d7 88 be 2f 87 b7 be ee bb 9d be
       -0.47099352 -0.2672723 -0.35845324 -0.3080744
000340 b0 d9 ad be 71 b8 56 bc fb d2 ab 3e 83 e0 19 bf
       -0.33955145 -0.013105498 0.33559403 -0.601082
000350 47 d8 0f be 0b 49 fc be 23 86 2f be 6c f8 b6 be
       -0.14047347 -0.49274477 -0.17141013 -0.35736406
000360 cc 2c 05 bf a7 6e 89 be 6d c9 54 be 0d fb e9 3d
       -0.5202148 -0.26842234 -0.20779963 0.11424837
000370 b2 38 9b be 80 53 e8 be 52 53 95 be b6 b7 00 bf
       -0.30316693 -0.45376205 -0.2916513 -0.5028032
000380 43 63 cd 3d 63 3b 98 3e eb 06 a7 be 69 b1 7f be
       0.10028698 0.29732808 -0.32622465 -0.2497002
000390 5c e8 09 bf 98 6b c2 be 9f dc b9 bd 77 c4 3f be
       -0.5387018 -0.37972713 -0.09075283 -0.18727289
0003a0 39 43 ae be 8d 57 b1 be 87 7a be be e3 79 d5 be
       -0.34035662 -0.34637108 -0.37202856 -0.41694555
0003b0 1b 1a 87 be 6e cc b2 be 1c d1 e3 be 78 ec 0c bd
       -0.26387104 -0.34921592 -0.44495475 -0.0344052
0003c0 e5 b2 1e bf 2b b9 0f 3f 36 1e a3 be 6d 84 d9 be
       -0.6199172 0.5614192 -0.31858987 -0.42483845
0003d0 1d b5 bc be e5 91 9b be c4 ff 4a be 76 21 6d be
       -0.36856928 -0.30384746 -0.1982413 -0.23157296
0003e0 f5 68 de be 2e 24 b9 be 4f 1c de 3d 5b e0 eb be
       -0.4343945 -0.36160415 0.10845243 -0.46069607
0003f0 7d 40 b9 3e 89 56 e1 be 78 f5 c0 be 3b 7d 59 be
       0.36182013 -0.44011334 -0.37687278 -0.21239178

fc1.weight f4 [300, 300]
000000 59 a2 09 be d9 73 b4 bd ef 09 99 bd 28 97 21 bd
       -0.13440837 -0.08811159 -0.07472598 -0.039450794
000010 cb 73 51 3d ec 00 99 bd 8b a6 5b 3d a8 76 c9 bc
       0.05113582 -0.07470879 0.053625625 -0.024592713
000020 f0 10 cf bc 5c fc 21 bc ae e1 49 3d 15 00 fe 3d
       -0.025276631 -0.009886827 0.04928749 0.124023594
000030 11 2f a8 bd 90 de df 3c f1 4a 98 bd e3 68 8f bc
       -0.08212102 0.027327806 -0.07436169 -0.017506069
000040 d1 d4 25 bd ff 63 8b bc b7 ca d3 3d 75 e6 31 bd
       -0.04048616 -0.017015455 0.10341399 -0.04343267
000050 19 68 98 bd be ca 23 3d af 45 01 be 17 d1 8f bd
       -0.0744173 0.039988272 -0.12624238 -0.070223026
000060 dc 5a ff bd e9 97 ed bc 07 df 05 bb 54 82 12 bd
       -0.12468502 -0.0290031 -0.0020427124 -0.03576882
000070 23 c0 90 bd c6 71 a4 bd 94 4b 08 bd cf fb 5b 3d
       -0.07067897 -0.08029513 -0.033275202 0.05370694
000080 35 b4 b1 bd 50 ef 4b bd 8b eb 2e be 20 4b f5 bd
       -0.0867695 -0.049788773 -0.1708204 -0.119772196
000090 d7 4e 83 3d 6b 50 8f 3c 7a 51 b4 bd 38 fa 8e bd
       0.06411522 0.017494401 -0.08804603 -0.06981319
0000a0 5e 92 e1 bd cf a3 ba bc 62 7a 89 3c 58 1a 2a bb
       -0.110142455 -0.022783188 0.01678199 -0.0025955644
0000b0 df 70 2d bd 77 8f e1 bd b8 fe 51 be 09 19 28 be
       -0.04234397 -0.11013692 -0.20507324 -0.164158
0000c0 d9 86 89 bd 27 b8 82 3d b3 a2 f8 bd d0 28 87 bd
       -0.06715173 0.063827805 -0.121404074 -0.06599581
0000d0 39 b1 3a bd 0c 48 54 bd 0c 91 f3 bd 9f 42 fa bc
       -0.04557917 -0.05182652 -0.118929 -0.030549346
0000e0 fe 0a fd bc d3 bc 9c bd 94 d4 9b 3d 05 1a 78 be
       -0.03088903 -0.07653203 0.076089054 -0.24228676
0000f0 d4 a7 06 be da 31 38 be 71 4d 14 bd ee c0 c3 bd
       -0.13149959 -0.17987767 -0.036206666 -0.09558283
000100 f0 0a bd 3b 3b d1 0b 3d 4e 11 6b bb 68 04 10 bc
       0.005769126 0.034135085 -0.0035868469 -0.008790113
000110 9a 94 c8 bd ee 3f 1f be 65 d5 52 bd 6f 52 10 3d
       -0.097939685 -0.15551731 -0.05147304 0.035234865
000120 8c 15 36 bd e5 f7 ac 3d 77 3a 04 be 93 2c c2 bc
       -0.044454142 0.0844572 -0.12912928 -0.023702895
000130 38 9e a8 bd d6 77 dd bd bb d2 d8 bc fb 80 f7 bd
       -0.08233303 -0.108138725 -0.026467672 -0.12085148
000140 b0 2c be 3a 67 1a e6 3d 48 c5 96 3c 5a db 90 bd
       0.0014509168 0.112355046 0.018404618 -0.07073088
000150 0b 36 98 3d 03 d4 92 bd 34 07 a4 3c f2 ba 16 3d
       0.07432183 -0.07169344 0.020022966 0.03679938
000160 e6 97 d0 bd 78 98 d6 b7 9c ee e9 3c 13 83 ae bd
       -0.10185222 -2.5581787e-05 0.02855616 -0.08521094
000170 9d f3 bb bd 03 37 b1 bd 64 b3 e8 bd b5 2b 95 bd
       -0.09177325 -0.08653071 -0.11362341 -0.07283727
000180 c0 4b 46 3d 26 65 3b 3d 01 7d 59 bd de 8b 5d 3b
       0.048412085 0.04575076 -0.05309773 0.0033805291
000190 84 81 ff bd b4 c4 82 bd 9b 0b a8 bc 44 71 aa bc
       -0.12475875 -0.063851744 -0.020513346 -0.020805962
0001a0 b1 c5 f7 bc 20 e5 bd bc de c5 87 bd f5 3e a5 bc
       -0.030245634 -0.023180544 -0.06629537 -0.020171622
0001b0 a2 38 11 3c 6d 88 87 bd 6c f8 90 bd c5 b5 99 39
       0.0088636 -0.06617818 -0.07078633 0.00029317863
0001c0 87 ce 91 bd 35 e6 38 bd e5 6b a0 bd 00 58 85 bd
       -0.0711947 -0.045141418 -0.07833079 -0.06510925
0001d0 29 f4 b3 bd 94 96 85 3c 36 3b a0 bd 6f 26 58 bb
       -0.08786804 0.016307153 -0.078237936 -0.0032981893
0001e0 e8 0c cd bd f7 d4 92 3b 63 dd 13 bd 32 1f 56 3b
       -0.10012227 0.004480954 -0.036099803 0.0032672402
0001f0 c8 6a 8d b8 d6 fb 98 bd fc 02 c6 3c ab 55 77 3a
       -6.7432935e-05 -0.07469909 0.024171345 0.0009435068
000200 9d 52 47 3d ad 5d 62 bd fa 86 19 be eb 11 ac 3a
       0.04866277 -0.055265117 -0.14992896 0.0013127899
000210 6c b0 ba bd af dd 4f bd 7c eb 8f 3d d2 60 20 be
       -0.09115681 -0.050748523 0.07027337 -0.15661934
000220 7c 5a 0b bd 11 dc 8a 3d b0 a3 4d bd 7a 68 87 bd
       -0.03402184 0.067802556 -0.050204933 -0.06611724
000230 da d0 6b bd b5 e8 85 bd 80 3b c2 3c 82 a3 72 bd
       -0.057572223 -0.06538526 0.023710012 -0.059237964
000240 cc bd e0 bc 43 6c 30 bd eb de 54 bd be 8b d1 bd
       -0.027434252 -0.043071996 -0.051970404 -0.10231732
000250 50 10 6a bc d5 0b 0e be 5e 5a d2 bd 9f 7c fe bd
       -0.014286116 -0.13871701 -0.102711424 -0.12426113
000260 54 e0 dd bc 7c 00 47 bd 85 63 92 3b 07 bd c4 3b
       -0.027084507 -0.048584446 0.00446743 0.006003979
000270 5d b2 b4 bd 88 32 6f 3d 26 d2 82 bd fc 6c ca bc
       -0.088230826 0.0583978 -0.06387739 -0.02471017
000280 e5 e4 ea bd 87 a2 96 3b 4d 5a 6e be ef a6 9e 3d
       -0.114694394 0.0045970115 -0.23276635 0.07746684
000290 95 0b 09 be 18 e3 82 3b ed e7 54 bb c7 d0 b8 bc
       -0.13383324 0.003994357 -0.0032486871 -0.02256049
0002a0 6d f2 31 3d 21 59 9b bd 81 4f 06 be 6c c7 8a 3d
       0.043444086 -0.07585359 -0.13116266 0.06776318
0002b0 e9 ca 2f be 04 00 ba bc fd 14 62 3c 95 12 1b be
       -0.17167248 -0.022705086 0.013798949 -0.15143807
0002c0 f4 9c 69 bc 8f 81 40 bd 09 2e 3c bc 98 fd 0f bd
       -0.014258612 -0.046998557 -0.011485585 -0.035153955
0002d0 e1 c8 11 be 29 6a 16 3d 5e 43 92 bd 45 92 a1 bc
       -0.14236785 0.036722336 -0.071417555 -0.019723067
0002e0 e8 69 88 bb d9 02 ba bd d7 12 72 bd 04 ce 85 bc
       -0.0041630156 -0.090825744 -0.0591 -0.016333587
0002f0 62 68 58 bd 88 f9 6d 3d 3b 5a 61 bc 1f 5a b0 3d
       -0.052833922 0.0580993 -0.013754423 0.08610939
000300 c3 4a 2f 3d cc 63 1f be e1 bb c9 bc 0d ed 52 bc
       0.042795908 -0.15565413 -0.02462572 -0.0128739
000310 5d b1 ba 3d 3e 18 18 be 8a c4 0d 3a 2c f5 a1 bc
       0.091158606 -0.14852998 0.000540801 -0.019770227
000320 21 b1 73 3d 34 9d 00 bd 88 41 13 be c9 f5 01 bd
       0.059495095 -0.03139992 -0.14380467 -0.03172854
000330 31 07 c7 bc bd 32 b8 3d 38 29 36 bc 3e 13 79 bc
       -0.024295421 0.089940526 -0.011118226 -0.015202342
000340 95 56 01 bd f0 40 e0 bd 25 da 72 3d 0a a5 b7 bd
       -0.03157671 -0.10949886 0.05929007 -0.089670256
000350 1d fc 2b be 26 16 2f bd 25 0d 5a bd 80 fe fe bc
       -0.16795392 -0.04274573 -0.05323519 -0.031127214
000360 d4 91 5f 3d a2 3c d2 3c 8b 5f 2b be b7 1e 1e bc
       0.054582432 0.025663678 -0.16735666 -0.009650878
000370 9c 65 6b bb 93 09 b3 bc 13 70 1a 3d 18 26 cc 3d
       -0.0035918718 -0.021855151 0.03770454 0.09968203
000380 bc 7e 93 bd 45 e3 7f bb ec a9 fd 3c ff 48 21 bd
       -0.07201907 -0.0039045375 0.030964814 -0.039376255
000390 c3 eb 8c bd 06 c1 c6 3d 4b 73 51 3c b2 ef f0 3c
       -0.068809055 0.09704785 0.012783836 0.02941117
0003a0 dd c8 2a bd 40 cb e1 bd e2 e5 51 bd 6c 63 7c 3d
       -0.041695464 -0.11025095 -0.051244624 0.061618254
0003b0 1b ec e1 bd 8e db f4 3c 6f fd 33 3d 04 e7 e4 bd
       -0.11031362 0.029889848 0.043942865 -0.11176875
0003c0 1b ae 8d bd da 24 85 bd 90 5e e9 bc fe 5d 7b 3c
       -0.069179736 -0.065011695 -0.028487474 0.015342234
0003d0 fd 14 63 bc 86 d9 d4 bb 62 ff cc 3d e3 1d c6 3b
       -0.013859984 -0.0064956574 0.10009648 0.0060460432
0003e0 a4 2d 1f bd 6d 5c 51 bd 1c e5 87 bd c6 d6 96 bd
       -0.038861886 -0.051113535 -0.06635496 -0.073651835
0003f0 4f dd 23 3d 90 52 27 3d 96 a7 9f 3d ea fb 7d 3d
       0.04000598 0.040850222 0.07795636 0.062007822

fc1.bias f4 [300]
000000 82 35 90 3d b8 57 0b 3d 1f 1f 72 3e 55 87 88 3d
       0.07041456 0.034019202 0.23644684 0.066664375
000010 83 a3 32 be 5a 5f 01 3e de e0 66 be ae 43 49 3d
       -0.17445187 0.1263403 -0.22546718 0.04913681
000020 ef 50 25 3e fb b5 a9 bd 55 30 48 3e b7 37 02 3e
       0.16144155 -0.08286663 0.19549687 0.12716566
000030 55 f0 4c 3d 1d 3d 47 3e 89 bf 7e 3d aa 36 a7 3d
       0.050033886 0.19456907 0.06219438 0.08164723
000040 e3 6b 82 3d 03 68 29 3e fc 47 f0 bc 7e 4c 34 3d
       0.06368234 0.16543584 -0.0293312 0.04401826
000050 2e 1c 53 3e 0d 29 f4 3d 44 1f 9f 3d 5f 38 b7 3e
       0.20616218 0.11921892 0.07769635 0.35785195
000060 56 e4 70 3d 70 ab a2 bd ea 0b 32 3d 18 34 87 3d
       0.058811508 -0.07942855 0.043468393 0.06601733
000070 bf 2f 93 3d 9c 54 06 3e 31 88 4e 3d e6 fd 7e 3e
       0.07186841 0.13118213 0.05042285 0.24901542
000080 95 ae 08 3e bb b9 b1 3e 7e 1f 0a 3d 8d 0f 45 3d
       0.13347848 0.34712014 0.03372144 0.048110534
000090 df e4 6d 3e 25 f9 7f 3e dc f6 a2 3d af 4a 53 be
       0.23231839 0.24997385 0.07957241 -0.20633958
0000a0 bf 19 cf 3c bb 2c 14 bb 08 32 24 3d 8f 01 4f 3d
       0.025280831 -0.002260967 0.040086776 0.050538596
0000b0 6e 8d 97 3d 54 11 b8 3d a4 63 00 3e c9 7c 0e 3f
       0.074000224 0.0898768 0.1253801 0.5565916
0000c0 ca 6a 4d be b2 ea e8 bc 69 98 0d 3c 90 4d 99 bb
       -0.20060268 -0.028432224 0.008642294 -0.0046784356
0000d0 cf 87 8c 3e ec 93 90 3e a2 1d ba 3d 0c 3d 36 3e
       0.27447364 0.28237855 0.09087683 0.17796725
0000e0 d9 28 f0 bd af cc 42 3d 2b a0 7f 3b fb c0 02 3f
       -0.11726541 0.047558483 0.003900538 0.51075715
0000f0 0a 4d 30 3e bb 8d dd 3d 97 c9 81 3e ac c2 83 3e
       0.17216888 0.108180486 0.25349113 0.2573446
000100 5b c7 b3 bc 76 49 1a 3e 4a fd 13 3e 39 0f 62 bd
       -0.021945646 0.15067086 0.14452091 -0.0551903
000110 f6 b6 4f 3e 13 5a 3b 3e 89 e4 41 3e 40 17 79 bd
       0.20284638 0.1829608 0.18934835 -0.06081319
000120 59 f9 4f 3e 06 c1 0b 3e 13 c0 81 3e 1f b6 06 3e
       0.20309962 0.13647851 0.25341853 0.13155411
000130 88 82 18 3d e4 4d 94 bd 67 52 55 3d b0 4b 0f 3d
       0.03723386 -0.07241419 0.052080538 0.03498429
000140 99 06 4e 3e 09 cf 3f 3e 88 b5 71 3e a1 64 f3 3e
       0.20119704 0.18731321 0.23604405 0.4753771
000150 65 60 4b be 82 aa 28 bd d6 d5 b1 3d 26 a9 8d 3b
       -0.1986099 -0.041178234 0.08683364 0.0043231426
000160 85 6a 87 3d 2c 44 40 3e aa 11 94 bc e1 61 d5 3d
       0.06612114 0.18776006 -0.01807483 0.104190595
000170 aa 56 55 3e 91 76 4a 3e ea 2f 9e 3d 66 5f 33 3e
       0.20833841 0.19771792 0.07723983 0.1751686
000180 50 2b 5f be ea 9e 5c ba 60 76 9d bc d5 1f d4 3d
       -0.21793866 -0.0008416014 -0.019221485 0.10357634
000190 9f d1 62 3d 7c d9 e7 bc 80 26 fb 3e 67 54 45 3d
       0.05537569 -0.028301947 0.4905281 0.048176195
0001a0 d4 c6 bd 3d 1f e1 8e 3d d4 04 23 3e f0 41 ff 3d
       0.09266439 0.06976532 0.1591981 0.124637485
0001b0 0c d4 d4 3d 0c c6 bc 3c 16 d1 b8 3e 8a 20 9a bd
       0.10392007 0.023043655 0.3609702 -0.075257376
0001c0 62 d2 5b 3d df 33 21 bd b6 41 78 3b 0c 1e 8a 3e
       0.053667434 -0.03935611 0.0037880964 0.2697605
0001d0 3c 3d da 3e b6 a1 57 3d ee 0c 4e 3d 61 db 71 3e
       0.42624843 0.052644454 0.0503053 0.23618843
0001e0 79 7f d0 3c fd a8 b7 bb 8f 0c 51 3e 8f 02 4b 3e
       0.025451409 -0.005604862 0.20414947 0.19825195
0001f0 34 55 4f 3d c8 d6 0d 3e a0 12 da 3e 9f 83 4e 3b
       0.050618365 0.13851464 0.42592335 0.0031511558
000200 0e c8 58 3e 0e 21 86 3e cc 8f 32 3d f5 c1 27 3d
       0.21170065 0.26197094 0.043594167 0.040956456
000210 a6 5e 36 be 94 89 29 3d 5b b1 4a bc 20 65 8d 3e
       -0.17809543 0.04139097 -0.012371386 0.27616215
000220 4f 7d ce 3e 49 71 65 3c b1 44 36 bd ed 5b 69 3e
       0.40329978 0.01400406 -0.044499103 0.22788973
000230 65 59 90 3e e7 2e 71 3d 4f 05 ea 3d e2 18 84 3d
       0.28193203 0.05888262 0.11426794 0.064500585
000240 35 ef 7d 3e c9 60 8d 3d 06 f8 a7 3d ff 3b 73 3e
       0.24798281 0.06903226 0.082016036 0.23753355
000250 d0 82 de 3d 05 d9 81 3e 27 48 94 3e 7d 58 2b 3e
       0.10864794 0.25360885 0.28961298 0.16732974
000260 cd 2b f8 3d e9 b9 d3 3d 1e 8c 14 3e dc 45 b1 3e
       0.12117729 0.10338194 0.14506575 0.3462361
000270 98 e5 1b bb 21 4d 82 3e af b3 63 3e 84 f3 a5 3e
       -0.0023787972 0.2544947 0.22236513 0.3241235
000280 8c 71 fe bd c4 0e e4 3d 76 b4 e8 bc df 81 13 3e
       -0.12424001 0.11135629 -0.028406363 0.1440501
000290 7f 48 32 bb 0d 26 bd 3e 37 87 76 3d 6e ee 92 3e
       -0.0027203856 0.36943093 0.060187545 0.28697532
0002a0 e9 e3 dd 3d 98 e7 b6 3e 78 77 fb 3d 2c dd 4c 3e
       0.10834486 0.35723567 0.12278646 0.20006245
0002b0 7d 75 39 bd c5 4c d7 3d 38 1b 99 bc 0d f8 ab bd
       -0.04527806 0.105126895 -0.018689737 -0.08396921
0002c0 0b b2 6b 3e 06 38 b8 bb 11 dd 41 3d ac e7 4b 3e
       0.23017137 -0.005621913 0.047329966 0.19912595
0002d0 d5 0a 5a 3d e1 65 5b 3c 0f 2b 69 3d 9c 19 9b 3e
       0.053232986 0.013390989 0.05692583 0.30292976
0002e0 29 d1 6f 3e f2 e7 1b 3d 5f 51 06 3e 8d f2 54 3d
       0.23419632 0.038062997 0.13116978 0.051989127
0002f0 de 43 35 3d 62 29 d4 3e f7 31 57 3d b1 36 8f 3e
       0.044254176 0.41437823 0.052537885 0.27971414
000300 96 71 79 3e c5 d2 38 3e f1 9f 47 3d 81 3d a0 3e
       0.24359736 0.18049152 0.048736516 0.31296924
000310 64 83 41 3d 34 a1 07 bd f6 05 33 bd 03 b9 d4 bc
       0.047244444 -0.03311272 -0.043706857 -0.025967127
000320 b4 e3 ac 3c 03 fa 5b 3d d9 ad f4 3b 8c 97 10 3e
       0.021104671 0.053705227 0.0074670133 0.1412031
000330 ed 1e 77 bd d5 fb 59 3e 7f d2 10 bd 34 e9 92 3d
       -0.060332227 0.21287473 -0.035356995 0.07173386
000340 4e 68 ad 3b 1d c3 b8 3c 53 9b 9c bc 8c 43 9c 3d
       0.005291975 0.022553975 -0.019117033 0.07630071
000350 dd 87 6a 3d 9a ac fc 3c 00 4c 5a bd 06 68 f2 3e
       0.057258476 0.030844022 -0.053295135 0.4734499
000360 33 1e 05 3e 80 a6 3e 3d af 76 e5 3c 36 40 2d 3e
       0.12999801 0.046545506 0.028010694 0.16919026
000370 a1 08 a4 be 15 94 8f 3e 99 0c 8a 3d 65 40 5b bb
       -0.32037833 0.28042665 0.06740684 -0.003345513
000380 c2 aa bc 3e 10 71 e3 3e 29 18 71 3e 4c da 4c 3e
       0.36849028 0.44422197 0.23544373 0.20005149
000390 71 83 98 3e 26 ab 2d 3e 03 b1 58 3e c6 9a f3 3d
       0.29787782 0.16959819 0.21161275 0.11894755
0003a0 e2 61 28 bb e6 14 48 3d 73 fa 13 3e 0b bb 2c 3e
       -0.0025693108 0.048848055 0.14451008 0.16868226
0003b0 76 98 3e 3e 57 d6 85 3e 4c 81 15 3e aa 22 91 3e
       0.18612847 0.2614009 0.14600104 0.2834676
0003c0 ae 6b e4 3c 2d c0 ee 3e 95 82 6e 3e 5f cd 82 3e
       0.027883377 0.46630993 0.23292 0.2554731
0003d0 cb 2f 8c 3d b5 cb 7d 3e 4d 50 8c 3e c2 d9 2f 3d
       0.06845053 0.2478474 0.27405015 0.04293228
0003e0 89 5a 32 3e 47 05 d1 3d 01 dc 9e 3d 25 4d 14 bc
       0.17417349 0.10206085 0.07756806 -0.009051596
0003f0 a0 18 ce 3c 68 2a eb 3e 11 02 01 3d 13 99 2a 3e
       0.025158226 0.4593079 0.03149611 0.16659956

fc2.weight f4 [300, 300]
000000 a9 67 b1 3d c3 04 54 3d 12 7d 5e bd 5d 17 a7 bc
       0.0866235 0.051762354 -0.054318495 -0.020396883
000010 7b b2 e6 3d 84 60 74 3d 9c 53 ad bc 10 9b 4e 3d
       0.11264511 0.059662357 -0.021158032 0.050440848
000020 ed 3a 74 3d ca 4c 44 3d 1d 8d 35 3d 97 8f 9d 3d
       0.05962651 0.047924794 0.04432403 0.07693403
000030 22 cb f1 3d 50 70 2f 3d 10 88 e3 bd 52 b2 92 bd
       0.11806323 0.04283172 -0.11109936 -0.07162918
000040 44 ae cc bd 87 a4 74 be dc c5 dc 3c 87 73 a4 bc
       -0.09994176 -0.23890887 0.026949815 -0.020074619
000050 b4 b0 8c 3d 50 d6 ef bc 60 af 07 3d 3b f8 1c 3d
       0.06869641 -0.029276997 0.033126235 0.03832267
000060 cc 53 6b bd 61 04 71 3d fc 67 90 bc e6 c6 af bd
       -0.05745296 0.058842067 -0.017627709 -0.08582859
000070 89 d1 e8 bd ab 4b f6 bd 29 c1 d3 3c 14 f9 c7 3d
       -0.11368091 -0.12026151 0.025848942 0.09764305
000080 06 47 05 3d 79 19 79 3d 27 a7 83 3d dd 0c 74 3d
       0.032538436 0.06081531 0.06428366 0.05958258
000090 00 64 5a bc 7b cf 94 be f0 48 af 3d 54 22 88 bd
       -0.013329506 -0.29064545 0.085588336 -0.066471726
0000a0 ee 36 08 be 64 f8 21 be ac 60 63 3d 68 ee 62 bd
       -0.13302204 -0.1581741 0.055512115 -0.055403143
0000b0 4b 58 56 3e b9 1e 57 be 0c ea a2 be fc 15 94 3d
       0.20932119 -0.21007814 -0.3181919 0.07230756
0000c0 04 f9 71 be 53 63 d6 be 5a 49 27 3d 87 b8 e9 bd
       -0.23630148 -0.41872653 0.040841438 -0.11412149
0000d0 36 45 42 3e b4 41 c7 bd b1 7d 23 bd 41 88 a6 bd
       0.18971714 -0.09729329 -0.03991479 -0.08131457
0000e0 82 94 8e 3d bd b1 27 3c 25 85 26 3c eb a9 95 3c
       0.06961919 0.010235247 0.01016358 0.0182695
0000f0 45 cd d5 bd c8 3c 3a be 9d 77 21 be 56 38 e1 bc
       -0.10439543 -0.18187249 -0.15768285 -0.027492683
000100 c3 1f 11 be 2f 6b 47 bd 87 2e 8e 3b 46 f9 11 be
       -0.14172272 -0.048686203 0.0043390426 -0.14255247
000110 ae 41 54 3e 17 96 5a 3e ed 35 1b 3d 85 e2 07 3d
       0.2072818 0.21346317 0.037893225 0.03317501
000120 fc c9 06 be 7f de 3f 3e f9 2e 52 bd 47 08 1b bd
       -0.13162988 0.1873722 -0.051314328 -0.03784969
000130 3c 69 3e bd 3f bf e9 3d 16 b0 0e 3d 6a 27 d8 3c
       -0.046487078 0.114134304 0.034835897 0.026385982
000140 f0 98 7f bd 58 6f 9f 3c 78 1e c1 bd 35 03 81 3d
       -0.062401712 0.019462273 -0.094296396 0.0629944
000150 05 38 e0 bc 7e 1b dd be 6c ba 99 bd 9b 51 06 bd
       -0.027370462 -0.43185037 -0.0750626 -0.03279267
000160 38 48 5e 3d 78 93 de 3d 16 d6 7a 3d 64 3a ca 3d
       0.054268092 0.10867971 0.061239325 0.098744184
000170 5b d5 2a 3d 12 30 85 3b 58 4e 27 3c d5 57 37 3d
       0.041707378 0.0040645683 0.01021155 0.044761498
000180 b2 85 7f bc 62 a3 86 3d 13 eb 02 be 8a d4 96 3c
       -0.01559584 0.065741315 -0.12784986 0.018411893
000190 b9 11 35 3d 54 50 7e be f2 87 90 bd f9 2d 66 bd
       0.044206355 -0.2483533 -0.070571795 -0.056196187
0001a0 93 e9 01 3d 7b ad 85 be 53 2c d2 bb 8f ec d5 bd
       0.031716894 -0.26108918 -0.0064139753 -0.104455106
0001b0 5e 7f 07 3e f4 53 0e bd 56 45 01 3d 64 55 8e be
       0.1323218 -0.034748033 0.031560265 -0.27799523
0001c0 18 ed b8 3c fd fa be bc 08 2e a4 bd 3d 44 1c 3c
       0.022573993 -0.02331304 -0.08016592 0.009537754
0001d0 51 97 84 bd 77 c5 25 bd 56 c2 db 3c 26 d4 03 be
       -0.06474174 -0.04047152 0.026826065 -0.12873897
0001e0 b7 27 9d bd 72 97 3b be b0 f2 5f be a2 96 a5 3d
       -0.07673591 -0.1831949 -0.21869922 0.080853716
0001f0 ca 24 b8 bb 77 31 3d bc 52 de 46 3c 57 1c 67 be
       -0.00561962 -0.011547438 0.012137966 -0.22569405
000200 28 58 b1 3c ba 8d 2d 3e 45 a9 a8 3c 5e aa 21 be
       0.021648481 0.16948596 0.020588527 -0.15787646
000210 2e 06 97 3e e9 75 24 be 89 41 87 be c6 59 61 3e
       0.29496902 -0.16060604 -0.26417187 0.22006902
000220 f9 b9 c0 3d da c3 3f bd af 7c 87 be c5 7f aa be
       0.094104715 -0.046817638 -0.26462314 -0.33300605
000230 99 0d 30 be 66 32 64 bd 5e 04 39 be d0 30 db ba
       -0.17192687 -0.055712126 -0.18068072 -0.0016722921
000240 ab 97 f6 3c 42 61 06 bd 94 ce e0 bd 4d 51 0e be
       0.030101618 -0.032807596 -0.10976902 -0.13898201
000250 12 8b b5 bc 2a 15 0b 3e d3 4d e2 3c c7 dd c3 3d
       -0.02216104 0.13582292 0.027625 0.09563785
000260 00 8d f1 3d 8d 72 2d 3d fc 39 af bd 3f 66 94 3c
       0.11794472 0.042345572 -0.085559815 0.018115161
000270 75 e0 81 3d 6d 9a c9 3d 3c 86 59 bd 63 6c ad bd
       0.0634164 0.098439075 -0.05310653 -0.08467939
000280 cf a7 e6 3c 6c 56 6b be 27 4d 8e 3c 90 8a 44 bd
       0.02815619 -0.22982186 0.017370773 -0.047983706
000290 3c 31 95 3b c7 00 9a bd 90 c7 d7 3b 9d 78 3e bd
       0.0045529883 -0.075196795 0.006585069 -0.046501745
0002a0 ca 3e 5e bd 67 e5 67 3d b4 ff 1e bc fb 23 60 3d
       -0.0542591 0.05661526 -0.009704519 0.054721814
0002b0 99 fe b9 3e 76 27 3c bd 87 14 0c bd db f5 46 be
       0.36327055 -0.04593607 -0.034199264 -0.19429724
0002c0 ab e2 67 be 79 40 21 bd 54 21 3e 3d 1e 9c 34 3b
       -0.2264506 -0.039368127 0.046418503 0.0027558873
0002d0 5a 06 16 3e 1f 59 d0 be e8 23 0f be d8 35 25 be
       0.1465086 -0.40692994 -0.13978541 -0.16133821
0002e0 28 24 d3 b9 b0 a2 c1 bd 12 e3 40 3c b0 11 af 3c
       -0.00040271995 -0.09454858 0.011772888 0.021370739
0002f0 4c 67 12 3e 42 51 99 bb cd 92 b5 bd d6 f3 60 be
       0.14297217 -0.004678876 -0.08865891 -0.21968016
000300 c1 7c 34 be 65 a6 fb 3d 05 9b 9b be 9f 9c 53 bd
       -0.17625715 0.122875966 -0.30391708 -0.051663037
000310 2f 6d 03 bd e3 3a 9d 3e 28 e3 37 3d 35 fc 9e 3c
       -0.032086547 0.3070899 0.044894367 0.019407371
000320 33 58 ad 3d fd ad c3 bd ea fc 65 3d 16 98 88 bd
       0.08464088 -0.0955467 0.0561494 -0.06669633
000330 a0 98 1e bd 2c 33 bf be 46 cd 0e be fc 4f 61 3d
       -0.038719773 -0.3734373 -0.13945493 0.05500792
000340 cd 95 99 3d 09 f2 96 3d 3c 45 e7 bd 20 71 a6 bd
       0.07499275 0.07370383 -0.11292502 -0.08127046
000350 88 7f 97 3d c7 e9 de 3c c4 60 bb bd 3f af 79 bb
       0.073973715 0.027211083 -0.09149316 -0.003809884
000360 b1 f6 7d bc 08 77 b5 bd b9 1a a6 3d a6 5f ea 3c
       -0.01550071 -0.08860594 0.08110566 0.028610062
000370 48 cd 3a bc 02 56 93 3d 77 3c 92 3c 2a ec 46 3e
       -0.011401482 0.07194139 0.017851098 0.19426027
000380 55 7a 24 3b b7 e8 80 3d 42 7e ea bc 39 63 2f 3d
       0.002509733 0.06294387 -0.028624658 0.042819235
000390 0f 6d 39 be c0 2d 2d 3d fa ac e0 3d 14 47 20 3e
       -0.18108009 0.04227996 0.10970493 0.15652114
0003a0 15 2f 41 3e 50 76 b2 bc 9e 74 2a be 3c d8 19 3d
       0.18865617 -0.021784931 -0.16646048 0.037559733
0003b0 85 aa 0d 3e 44 74 2e be 9f 1e 29 be 1e bd f8 bc
       0.1383458 -0.1703654 -0.16515587 -0.030363616
0003c0 09 e7 0a 3e bb ce 9c bd b1 cb 9c 3d c2 e1 2e 3c
       0.13564695 -0.07656618 0.076560386 0.010673942
0003d0 74 2b b9 3d d6 e6 19 be b3 88 83 ba 7f 80 1e bd
       0.09041491 -0.15029463 -0.0010035246 -0.038696762
0003e0 ac 2e 24 3e ec 49 1d 3e 07 19 2a bd b1 84 b9 bb
       0.16033429 0.1536023 -0.041527774 -0.00566157
0003f0 05 5e fe bd d0 4d c1 3d 36 79 fd 3b d1 83 8e bc
       -0.124202766 0.0943867 0.0077353967 -0.01739684

fc2.bias f4 [300]
000000 b7 8d af 3e 6c a6 22 3e ef 72 d4 3d aa f6 de bc
       0.34287807 0.15883797 0.10373484 -0.027217228
000010 2a 8c 7e 3e 93 6e 20 bd 4e 5d f0 3c 28 a3 33 3e
       0.24858156 -0.03916795 0.029341366 0.17542708
000020 29 a3 57 3c fc fa 1c 3e 61 72 7a 3e 36 5b 83 3d
       0.013161459 0.15330118 0.24457695 0.064138815
000030 93 31 27 3e ee 00 57 3e e4 db b8 3d 8b 66 86 3d
       0.16327505 0.20996448 0.09026316 0.06562527
000040 06 ac 9c 3d 47 e7 1d 3e 6a 56 1e 3e f0 ed 47 3e
       0.07649998 0.15420257 0.15462652 0.1952436
000050 04 63 52 bb 21 b6 5c 3d 5f 19 31 3e 62 46 7e 3e
       -0.0032102475 0.05388463 0.17294835 0.24831536
000060 96 b5 04 3e a3 a1 30 3c f2 6c c4 3c 9b 2d fb 3c
       0.12959895 0.010780725 0.02397773 0.030661395
000070 95 f8 74 3d 57 49 27 3e 48 d3 ce bc c6 d1 60 3e
       0.05980738 0.1633657 -0.025247231 0.21955022
000080 e6 d5 b7 3e 94 19 16 be e3 8f a2 3d 74 4e 77 3e
       0.3590538 -0.14658195 0.079376005 0.24151021
000090 90 46 9d 3e f3 ed a6 3d c7 b0 2a 3e 28 d3 1a 3d
       0.30717897 0.08150854 0.16668998 0.03779903
0000a0 d3 25 0b 3d 5f f8 7a 3b 7d d8 2b 3e ec 08 db 3d
       0.03397162 0.0038295013 0.16781802 0.10695061
0000b0 50 0a 4f 3d 3f 33 d0 3c bf f6 7b 3d 0c be 0d 3e
       0.050546944 0.025415061 0.061514612 0.13842028
0000c0 26 3c 8d 3e 8a fa a6 3d d2 6f 82 3e 73 aa 49 3e
       0.27584952 0.08153255 0.25475937 0.19693927
0000d0 2d 22 51 3e 8b 96 9c 3d 5c e3 08 3e 71 2f 48 3d
       0.20423193 0.07645901 0.1336798 0.04887337
0000e0 37 f3 01 3e c8 ff 17 3e a1 2c 97 3e 66 f0 de 3c
       0.12690435 0.14843667 0.29526237 0.02721424
0000f0 ef e4 af 3d 0f e1 11 bd ad 19 7a 3e 58 3f bb 3d
       0.085885875 -0.035615023 0.24423857 0.09142941
000100 ce 2f 35 3e fc e7 51 3e 8d 76 79 3d 1a ab d9 3d
       0.17694017 0.20498651 0.060904074 0.10628338
000110 35 3a 03 3d ca 80 1e 3e a8 a9 39 3e 60 22 8a 3d
       0.032037932 0.15478817 0.18131125 0.06744838
000120 20 93 f9 3d f5 68 88 3e 6b d2 d3 bb 4c 8d 48 3d
       0.12186265 0.26642576 -0.0064642928 0.048962876
000130 2c 88 83 3d 91 0e 87 3d 5e ad 6a bd eb d2 34 3e
       0.06422457 0.06594575 -0.057294242 0.17658584
000140 fd e0 76 3e 66 60 c1 3d f2 71 24 3d b2 aa 97 3d
       0.24109264 0.09442215 0.04014773 0.074056044
000150 50 46 68 3e 13 ca f6 3d 35 71 8b 3d 18 e2 45 3e
       0.22683072 0.12050261 0.06808702 0.19324529
000160 ac 5c 4c 3e 1d 9f ef 3d f5 9c 29 3d 09 89 20 3e
       0.19957227 0.1170027 0.04140945 0.15677275
000170 7b ad 22 3e 07 a0 3a 3e 6a f8 1f 3d b2 d8 af 3e
       0.1588649 0.18225108 0.039055265 0.34345013
000180 c9 7c 27 3d 1a 47 fa 3d 35 5f 19 3e 65 dd d3 bd
       0.04089049 0.12220593 0.14977725 -0.10344962
000190 14 04 8c bc e6 3f 24 3e 63 e2 05 3e a4 00 34 3e
       -0.017091788 0.1604 0.13074641 0.1757837
0001a0 44 4c a3 3d e6 90 d5 3d 73 6f d7 3d ee 27 2c 3e
       0.07973531 0.10428028 0.10519304 0.16812107
0001b0 48 bb 69 3e 03 2e 2a 3d 0f 97 1c 3e a5 e7 a9 3d
       0.22825348 0.041547786 0.15292 0.08296136
0001c0 35 1b 43 3e a2 6c 39 bd 93 a8 0c 3e b3 8b dd 3d
       0.19053347 -0.045269616 0.13736181 0.10817661
0001d0 d9 aa 87 bc 0b 7b af 3d 44 09 95 3d 65 ce 2b 3e
       -0.016560959 0.085683905 0.07277158 0.16777952
0001e0 e2 de b0 3d 69 67 d7 3c df d9 02 3e 1b 56 58 3d
       0.086362615 0.026294427 0.12778424 0.05281649
0001f0 c7 0d a4 3d f0 00 bb 3e d3 c0 f5 3d 49 21 e9 3c
       0.0801044 0.36524153 0.11999669 0.028458254
000200 86 0a bf bb ce 3e 6c 3e b0 e1 4d 3c 77 fb cc 3d
       -0.005830112 0.23070833 0.012566015 0.100089006
000210 95 6e 2f 3e 63 5d b1 3d c8 6c 96 bc bc 58 65 bc
       0.17132027 0.0866039 -0.018362418 -0.013998207
000220 45 50 75 3d 84 db 08 3e 9c a5 ae bb d2 02 dd 3d
       0.059891004 0.13364989 -0.005329801 0.107915536
000230 36 63 b6 3d 43 c6 57 3e c3 be 22 3e 29 a4 98 3d
       0.08905642 0.21071725 0.15893082 0.07453186
000240 67 8e 92 3e de 91 91 3d f3 4a 08 3e f0 78 55 3d
       0.2862427 0.071079 0.13309841 0.052117288
000250 0e ba ba 3c 8c 1e ec 3d 3e 57 54 3e 7b 0b e6 3d
       0.022793796 0.11529264 0.20736405 0.112326585
000260 f9 33 f4 3d e2 60 03 3e 79 0c fb bd cc 8b 47 bd
       0.119239755 0.12829927 -0.12258238 -0.048717305
000270 ea 16 66 3e 3c 1a b9 3d 9b d8 d8 3d 2f 44 81 3c
       0.22469679 0.09038207 0.10588189 0.015779583
000280 51 11 cb 3d c4 69 51 3d 5b 91 e5 3d 95 00 a6 bc
       0.09915412 0.051126257 0.11209365 -0.02026395
000290 03 d7 03 3d cc 78 ad bd 83 e9 04 3d 60 a0 7a 3e
       0.032187473 -0.08470306 0.032449257 0.2447524
0002a0 24 c3 2c bd d4 26 c8 3c 83 c0 0e bd 75 be 4a 3e
       -0.042178288 0.024432577 -0.034851562 0.19799216
0002b0 01 22 b3 bd 88 f6 87 bd ea 54 b8 3e d3 0d 02 3d
       -0.0874672 -0.06638819 0.36002284 0.031751465
0002c0 df 02 a3 3d 94 1f 7b 3e cc 55 63 3e 15 ee 41 3e
       0.07959532 0.24523765 0.22200698 0.18938477
0002d0 0b b7 c9 3d 83 ce 62 3e 59 65 08 3e c0 e7 d5 bd
       0.09849366 0.2214909 0.13319911 -0.104445934
0002e0 51 b8 37 bc 94 88 aa bc 93 90 03 3d f2 88 a8 3e
       -0.011213378 -0.020817079 0.0321203 0.3291698
0002f0 d2 b1 84 3e 08 f4 87 bc 32 56 88 3d f2 27 51 3b
       0.25916916 -0.016595855 0.066570655 0.0031914678
000300 2e ae 35 3e be 33 91 3d 51 48 2a 3e ff 8c 09 3e
       0.17742226 0.07089947 0.16629149 0.13432692
000310 72 27 95 3e 04 4b e4 3c bb 18 73 bd 13 39 64 3e
       0.29131657 0.027867801 -0.059349757 0.22287397
000320 cb eb 1f 3f 0d db 93 3e da 05 18 3e dd af 4d 3c
       0.62469167 0.2887806 0.14845982 0.012554136
000330 5c 39 0a 3e cb 81 09 3e b2 f0 88 3c 2f 39 5f 3d
       0.13498443 0.13428418 0.016716335 0.054497894
000340 ce 65 a0 bc 17 44 b1 3d 33 e6 05 3e 42 c2 13 3e
       -0.019579794 0.08655565 0.13076095 0.14429572
000350 6d bd 12 3e 6c a3 2c 3d 94 3f bf 3d 14 2e d0 3e
       0.14330073 0.04214804 0.093382984 0.40660155
000360 9e 57 2c 3e 09 30 ef 3d f0 62 59 3e b5 6f 05 bd
       0.16830298 0.11679084 0.21229148 -0.032577235
000370 27 dc c3 3d 2b a5 a8 3d 8c 53 aa 3d 01 a2 1c 3e
       0.09563475 0.08234628 0.083167166 0.15296175
000380 98 bf f6 3d a2 3c af 3e 0f 86 4f bb 40 f6 b2 3d
       0.12048262 0.34225947 -0.0031665599 0.08738375
000390 01 45 14 3e 75 af 27 3c cf 0d 81 3e 76 76 97 3d
       0.14479448 0.010234703 0.25205848 0.073956415
0003a0 fc 37 50 3e 56 a7 c8 3d 4b f5 c7 bc 32 47 b1 3d
       0.20333856 0.09797542 -0.024408957 0.086561576
0003b0 20 ba f1 3c 07 38 38 3d 48 65 c3 3d f4 75 0d 3e
       0.029507697 0.044975307 0.09540802 0.13814527
0003c0 cb e9 a8 3d 0c 25 a3 3d 7d 0b ce 3d cc 43 46 3e
       0.082477175 0.079660505 0.10060785 0.193618
0003d0 bd 60 c4 3d ca 3d 82 3e 1c 1a 13 3d 40 db 09 3e
       0.09588764 0.25437766 0.03591357 0.13462543
0003e0 df 8c e6 bd 4e b7 66 3d 94 a7 84 3c 34 69 82 3e
       -0.11257338 0.056327157 0.016193189 0.2547089
0003f0 90 72 e3 bc be a9 0a 3c 90 58 ec 3d f1 ce 4e 3e
       -0.027764589 0.008463321 0.115403295 0.2019613

last_fc.weight f4 [20, 300]
000000 9f 7f 0c 3c 62 0f d6 3d db 38 ad be 16 c1 eb 3d
       0.008575349 0.10452153 -0.3383244 0.115114376
000010 bb 23 22 3d 1c 26 a6 bd 1c 4b 26 3c ba 81 51 3c
       0.039584856 -0.081127375 0.010149743 0.012787277
000020 32 46 22 3e ad 12 95 be 0a e9 c5 3b 8a ea 8f bc
       0.1584709 -0.2911581 0.0060397433 -0.017567892
000030 8c d7 01 bd 0e b7 02 bc 75 8d a2 3c 2f fe 48 3c
       -0.031699702 -0.007978214 0.019842843 0.012267633
000040 47 91 25 3f 2b 2f 30 3c a9 20 81 3c 25 cf 28 3d
       0.646748 0.010753433 0.015762644 0.041213173
000050 e5 86 07 3d 0d 08 39 3e 27 fe 79 3b 12 b1 5f 3a
       0.03308763 0.18069477 0.0038145871 0.00085331604
000060 a7 99 5c 3d 01 49 48 3b 10 e9 55 bb 3c 56 95 bc
       0.05385747 0.0030561092 -0.0032640137 -0.018229596
000070 12 8d 93 3c 20 9e 29 ba 83 4b 51 3d 38 7a 4e bc
       0.018011604 -0.0006470401 0.051097404 -0.012602381
000080 88 38 27 3d e1 9d 3e bd b9 3f 9d 3e 16 f0 e9 bc
       0.040825397 -0.046537284 0.3071268 -0.028556865
000090 51 74 e9 3c 56 df 92 bd df ea bc bc 8e ae 3d 3b
       0.028497847 -0.07171504 -0.023061214 0.0028943154
0000a0 00 56 5e bf ae 95 02 bd 7b 13 25 bc 20 ba fc bd
       -0.86849976 -0.031881027 -0.010075445 -0.12340188
0000b0 40 a4 d5 3e dd 70 05 3e 11 6a b0 3c ec ea f1 be
       0.41726875 0.13031335 0.021534951 -0.47249544
0000c0 a4 bb d6 ba 75 17 06 bc 24 25 40 bd ad e0 81 3c
       -0.0016382826 -0.0081843035 -0.04691042 0.015854204
0000d0 b1 1f ed bb 49 4e 8b bc 75 8a ca 3d ef 6e 13 3d
       -0.007236444 -0.017005103 0.0988969 0.035994466
0000e0 5a b7 02 3d 9c f9 75 3d 8b d0 3b 3c b8 ad 70 ba
       0.03191314 0.0600525 0.011463295 -0.00091811595
0000f0 61 f6 4e 3c de 95 55 3c 01 f8 fe bc ee 49 d9 be
       0.0126319835 0.013036219 -0.031124117 -0.42439216
000100 9d 8a 1a 3c 2d 5a ca 3c 11 e5 c1 3e b8 a3 de 3c
       0.009432462 0.024701202 0.37870076 0.027177677
000110 71 56 8f 3c 39 ca 84 3c 13 43 1f 3d 46 92 1b bd
       0.017497273 0.016209709 0.038882326 -0.037981294
000120 e8 4a b8 bd 34 ee 5d bd 47 51 c0 bd 6a c8 cd be
       -0.08998662 -0.054182246 -0.093905024 -0.40191966
000130 f3 85 6a bc 02 1c 10 3d 52 20 08 3c d7 49 95 3d
       -0.014314163 0.03518296 0.008308487 0.072894745
000140 e2 a5 dd 3d cf a1 d6 3c 35 a0 70 bc 5b 3c a9 3d
       0.10822655 0.026200203 -0.014686634 0.08263465
000150 76 4d 4f 3b 93 72 b4 bc 2a 0e ec bc e8 8d e5 bc
       0.0031631864 -0.02202729 -0.028815348 -0.028021768
000160 0d 24 9f bc 8c 13 39 3d f8 82 dd be f0 61 72 3d
       -0.01942637 0.045184657 -0.43263984 0.05917543
000170 d1 bb ef 3c 66 35 80 3c 9f 78 2a bc 8f ad dc ba
       0.029264363 0.015650462 -0.010404735 -0.0016836392
000180 06 34 9c 3b 7d e0 ab be b8 fc 42 3c 75 16 9e 3b
       0.004766944 -0.33569708 0.011901073 0.0048244544
000190 8d 2b c6 bc 2d cf 51 bd 4c 96 83 3c 6d b7 0e 3d
       -0.024190689 -0.05122297 0.016062878 0.034842897
0001a0 fb 2e 5a bc ce ba a9 3d ef 1f 78 bd a5 55 c8 bd
       -0.013316865 0.08287583 -0.06057733 -0.097819604
0001b0 5d 1a 9d 3a f9 7e 81 bb 05 4b 77 bd 20 ee 90 bd
       0.0011986006 -0.003951904 -0.06037428 -0.07076669
0001c0 46 dd 01 bd 9f 83 12 3d 68 21 9f 3a 42 b0 59 ba
       -0.031705163 0.035770055 0.0012140693 -0.00083041575
0001d0 20 b9 db bd 6b 50 3b ba 3f 85 d9 3d 22 3c 65 3c
       -0.10728669 -0.0007145467 0.10621118 0.013991388
0001e0 95 0f 85 3c c7 14 44 3b 2c 6b 24 3e 27 15 fa 3b
       0.016242782 0.002991961 0.16056508 0.007631916
0001f0 d3 40 8d 3d cf 08 dd bc f7 5f 4a bd bd 89 ee bb
       0.0689713 -0.02698174 -0.049407925 -0.0072796033
000200 de 79 c8 ba bf d0 a5 bb 3d d2 44 3d a1 db 29 3c
       -0.0015295108 -0.005060285 0.04805206 0.010367305
000210 12 08 e5 3d 29 ff 09 be de 66 8e bb 12 ff bb 3b
       0.1118318 -0.13476242 -0.004345759 0.005737194
000220 ad cc 23 3f 9e 15 da 3c b6 68 6e be 56 9e 58 3c
       0.63984185 0.026621636 -0.23282132 0.013221344
000230 73 7d 53 3c b7 a6 1a bd 57 9c 55 3c 61 f8 14 bd
       0.012908327 -0.037756648 0.013037763 -0.036369685
000240 3f 6b 86 3c 75 c6 4f bd de 01 c9 bc ff c0 e6 bc
       0.01640856 -0.050726373 -0.024537023 -0.0281682
000250 4b 81 8a bd cf 66 0d bd e4 60 80 bd a7 54 8e ba
       -0.06762942 -0.034521874 -0.062684804 -0.0010858969
000260 fd 3a 5f bd 4c 2a a2 3b e9 8a 76 3c 9e 52 a8 3a
       -0.054499615 0.00494889 0.015047767 0.0012842005
000270 ef b4 d1 be cc 66 82 3f a2 bf ce 3b 5c 52 97 3e
       -0.40958354 1.0187621 0.0063094655 0.29555023
000280 30 cb a9 be da 70 bc bc 9e 5d fd bd 94 9c 84 be
       -0.33162832 -0.02300303 -0.12371372 -0.2590071
000290 26 77 0a 3d a5 c3 4c bd 48 9e 56 3e a0 0f 85 3d
       0.033805035 -0.04999127 0.20958817 0.06497121
0002a0 5e 15 2d 3c 1a 6d 75 bb 66 77 11 3d d2 21 5a bd
       0.010564176 -0.0037449063 0.035514258 -0.05325491
0002b0 33 fe ba 3d 11 90 2e 3d 82 eb c9 bc c9 5e 3b bd
       0.09130516 0.04261786 -0.024648432 -0.04574469
0002c0 c5 32 29 3e 67 e7 81 3d 36 35 11 bb 5a f3 49 bc
       0.16523273 0.063429646 -0.002215696 -0.012326086
0002d0 0d 13 9b b9 43 da 75 bc 8d 2b d0 bd db 5c 58 bd
       -0.00029578098 -0.015005651 -0.10164557 -0.05282293
0002e0 93 1f 43 be 81 ce 46 bb dd 22 13 3e bd c3 0b 3e
       -0.19055013 -0.0030335488 0.14368768 0.13648887
0002f0 92 17 15 be 07 ca 83 3c f3 90 1c be 29 19 05 3c
       -0.14559773 0.016087545 -0.15289669 0.008123674
000300 eb 29 7f 3c 30 3f d2 3c f0 d1 1b 3d c7 db 18 bc
       0.015573959 0.025664896 0.03804201 -0.009329743
000310 61 61 16 bd ab 74 cc bc 16 c5 44 3c 09 82 4f bc
       -0.03671396 -0.024957975 0.01200988 -0.01266528
000320 49 69 a8 bc e8 c0 d0 bd c4 31 07 3c 21 e6 5f bf
       -0.020558016 -0.10193044 0.008251611 -0.87460524
000330 aa 52 a7 bd 32 f1 c4 bc f5 4e 0b bc 2b 9b a8 bc
       -0.08170064 -0.024040792 -0.008502712 -0.020581802
000340 fa e6 be 3b 26 1d 7f 3c da 83 05 3d 96 ca 5d 3e
       0.0058258744 0.015570914 0.032596447 0.21659312
000350 58 c4 2a 3d de 89 72 bc a2 39 3d bc a0 b9 44 bd
       0.041691154 -0.014803378 -0.011549385 -0.04802859
000360 db 69 4c 3c ff e0 d4 3b 5e 24 73 3d 57 8e db 3d
       0.01247641 0.006496548 0.059360854 0.107205085
000370 e2 04 bf bb b1 47 5b 3c f8 cd 67 3d a8 5d 94 3e
       -0.0058294395 0.013383792 0.05659291 0.28977704
000380 57 10 58 be 58 8f d0 bd a5 7d 9c 3c 1e 69 97 3c
       -0.21099983 -0.10183591 0.01910288 0.018482741
000390 6f 07 15 3e aa 65 a8 be 29 a2 d6 3c b0 cb 6f 3c
       0.14553617 -0.32890064 0.02620037 0.014635965
0003a0 ff 11 64 bc e8 3e e1 3e 30 7a 57 3d 02 64 ad 3c
       -0.013920306 0.43993306 0.05260676 0.021165852
0003b0 ef c0 06 3d 54 9d da 3c 5c bc 12 3b 5f 2f 15 ba
       0.03289884 0.026686348 0.0022390103 -0.0005690958
0003c0 f0 5d 88 bc 49 ca 17 3e aa ad 9a 3d 9f 36 0f 3c
       -0.016646355 0.1482326 0.07552655 0.00874105
0003d0 17 b6 92 bd 20 6c 93 3e b8 f4 5b be 44 5b df 3c
       -0.07163637 0.2879343 -0.21480072 0.027265199
0003e0 6b 77 24 3c 00 f6 fa bc 3f 46 7e bb e8 c5 c8 bc
       0.010038237 -0.03063488 -0.0038799194 -0.024508432
0003f0 52 ff fb 3c c2 ef 3b bb 02 ec 3e bc f7 0f 14 3e
       0.030761395 -0.0028676842 -0.011652948 0.14459215

last_fc.bias f4 [20]
000000 f7 39 da 3c c5 61 aa bc 44 4d 7b 3d be 19 c2 3c
       0.026638968 -0.020798573 0.061352983 0.023693915
000010 6e 7b 68 3d 84 3a c1 3c 5f 05 17 bd ec 71 d1 3d
       0.056758337 0.023587473 -0.036870357 0.10226807
000020 5b de be 3d 38 b9 2e 3e 25 d0 49 c0 8b f5 d2 c0
       0.09319755 0.17062843 -3.1533291 -6.5924735
000030 29 a6 6a c0 ee 2d 80 c0 25 29 44 c0 2b 16 c2 c0
       -3.6663916 -4.0056067 -3.0650113 -6.065206
000040 f4 b4 85 c0 a6 13 48 c0 4a 01 32 c0 b9 2e 6c c0
       -4.178339 -3.1261992 -2.7813287 -3.6903517
